work_dir/algorithmic_trading_FX_deepscalper_deepscalper_adam_mse/checkpoints/checkpoint-00002.pth (torch, 130251 bytes, 36 tensors)

net.0.weight f4 [64, 82]
000000 b8 51 3d 3e 2f a5 82 3e 02 9c 19 3e a8 0a 53 be
       0.18488204 0.2551665 0.15000919 -0.20609534
000010 38 87 fc bb 84 25 78 be 42 9e 1e 3e a0 23 f3 3c
       -0.007706549 -0.24233061 0.15490058 0.029680073
000020 21 59 03 3d 5b b1 c3 bd 89 b3 56 be 27 e0 3d be
       0.03206742 -0.09555312 -0.20966925 -0.18542539
000030 22 21 19 be 6c a9 82 3e 4f 60 6b 3e c7 ae ca bb
       -0.14954045 0.25519884 0.22985958 -0.006185386
000040 48 1d d2 3c cf d0 5b 3e 66 87 df bd 39 22 16 3d
       0.025648728 0.21466373 -0.10914497 0.03665373
000050 f9 1f 23 ba 02 fd 7c be 93 fe 81 3e 9a ae 2e bd
       -0.0006222721 -0.2470589 0.25389537 -0.04264698
000060 d4 3e c1 3b a2 ad b2 bc 35 99 9a 3d f1 f5 68 be
       0.0058973823 -0.02181131 0.07548753 -0.22750069
000070 18 cb f1 bd b4 dc 6b be ce a5 07 3e c9 9f 3d be
       -0.11806315 -0.2303341 0.13246843 -0.18517984
000080 1a e5 99 3d 48 3f 3e be 0b 3a 1d be 6c 60 b6 bd
       0.07514401 -0.18578827 -0.15354173 -0.0890511
000090 bc 2b ff 3c 6c c9 08 3c 1c c4 f5 bd ef 44 34 3e
       0.031148784 0.008348804 -0.120002955 0.17604421
0000a0 c0 d1 e0 3d a7 26 6e be 34 92 df 3c 5f 67 a4 bd
       0.10977507 -0.23256932 0.027291395 -0.08027529
0000b0 c9 11 42 3d 60 cf da bd aa a8 cf bd c2 47 68 be
       0.047380242 -0.10684085 -0.10139592 -0.22683623
0000c0 a7 b5 27 3e e2 b5 7f 3e 98 9a 21 be 54 96 60 be
       0.16377889 0.24971727 -0.15781629 -0.21932346
0000d0 6a 32 d7 bd 82 d6 5c bd 51 c5 ca bd b7 d4 eb bd
       -0.105076626 -0.053915508 -0.09900916 -0.115151815
0000e0 b9 45 bd bd 4c 73 98 3d de 97 ca bd 81 62 6b 3e
       -0.09241814 0.07443866 -0.098922476 0.22986795
0000f0 c9 93 b9 3d be ab 4d be 59 9d 4f 3e b0 da eb bd
       0.09061391 -0.20085046 0.20274867 -0.11516321
000100 1f fc 04 be 70 f8 41 be d7 cd 2d 3e d5 92 04 be
       -0.12986802 -0.18942428 0.16973053 -0.12946637
000110 38 b7 ac bd dd 98 44 bd c5 de 4c be 42 48 15 be
       -0.08433384 -0.047997344 -0.20006855 -0.14578345
000120 bd ca 68 3e 6e 98 90 be 1c 80 43 3b 61 a9 2f 3d
       0.22733589 -0.28241295 0.0029830998 0.04288614
000130 ef 8e 0e be 70 4b 48 bd c1 57 14 be ef 26 4b 3e
       -0.13921712 -0.048900068 -0.144866 0.1983907
000140 0c 41 89 3e d7 3a 69 3d 8c 25 54 3e 9c 45 d6 bd
       0.2680744 0.05694088 0.20717448 -0.10462496
000150 d7 32 41 3e 1a 9a 60 3e 2d 07 9c bc 7f b0 04 3e
       0.1886705 0.21933785 -0.01904639 0.12957953
000160 84 13 29 be 31 c2 b6 3d 66 58 81 be 22 a0 02 bc
       -0.16511351 0.08923758 -0.25262755 -0.007972749
000170 02 f9 02 3e 8a f2 c9 bc fb 7c 95 3d aa 8d a4 bd
       0.12790301 -0.024651784 0.07299229 -0.08034833
000180 74 81 0c bd ad e9 b4 bd 71 90 08 3e 22 04 e4 bd
       -0.034303144 -0.088336326 0.1333635 -0.11133601
000190 b7 72 af bc ab 3e 6c be 6d 16 35 3e f3 b0 40 bc
       -0.021417005 -0.23070781 0.17684336 -0.011760938
0001a0 9b 4e 11 3e b6 c2 50 3e 96 16 1e bc e6 aa 81 be
       0.14190142 0.20386776 -0.00964894 -0.25325698
0001b0 48 84 83 be eb 21 9d bc 1b 6a de 3d 47 eb 77 3e
       -0.2568686 -0.019181212 0.10860082 0.24210845
0001c0 4b 15 39 3e 06 47 66 be 5c 09 11 bd ed 62 25 be
       0.18074529 -0.22488031 -0.035409316 -0.16151018
0001d0 e8 ab ac 3b 7b d2 e3 3d be 3c 78 bd 72 c4 26 3e
       0.0052695163 0.1112413 -0.060604803 0.16285875
0001e0 75 6b ac 3c 02 48 2f 3d 10 13 83 3e e4 c6 1d 3d
       0.021047333 0.04279328 0.2560048 0.038519755
0001f0 9f 40 04 3e d2 2b ed bc 93 8f 85 3e 35 55 19 be
       0.12915276 -0.02895156 0.260861 -0.1497391
000200 e9 72 a9 3d b1 6b 68 be 2e e3 18 bd 1a 74 42 be
       0.082738705 -0.22697331 -0.03732603 -0.18989602
000210 ca d2 e2 3d e9 2b 1f be 1c d1 41 be 0f b8 a9 3c
       0.11075361 -0.15544094 -0.18927425 0.020717649
000220 25 1f 57 bd fd b8 b7 bd ad 35 2e be 02 de 6c 3e
       -0.052519936 -0.089708306 -0.17012663 0.23131564
000230 73 0a 81 bd b0 04 af ba 11 4c 92 3d ea a1 16 3e
       -0.06300821 -0.0013352837 0.07143415 0.14710203
000240 89 c4 84 be fa 2a 01 bc da ec 2a 3e c3 2e 1c 3e
       -0.25931194 -0.007883782 0.16691914 0.15252213
000250 01 12 86 3e 3c 11 fd bb d6 33 d0 bd a4 78 a2 3d
       0.2618561 -0.0077230018 -0.10166137 0.079331666
000260 00 61 d9 3c 07 38 62 3e b9 c0 20 be c7 73 80 be
       0.026535511 0.22091685 -0.15698518 -0.2508833
000270 e2 5d 25 3e a1 1d 39 3d 82 ed 44 3e b1 1f 6b bd
       0.16149095 0.045194272 0.19231227 -0.05740327
000280 9b c6 84 be 6f ea 35 3e f0 40 d4 bc 60 4b 62 3e
       -0.25932774 0.1776521 -0.02590987 0.22099066
000290 63 fc 8c be 78 e6 5f be e6 b7 4c bd 9a be 95 be
       -0.27536306 -0.2186526 -0.049980067 -0.2924698
0002a0 e7 5c 29 be 2b a9 0a be 4a 83 15 3e e4 4c 1e 3e
       -0.16539346 -0.13541095 0.14600864 0.15459019
0002b0 e5 95 72 be f2 e2 45 be e8 ec 97 bc 6b 8b 74 3d
       -0.23689993 -0.19324854 -0.018545583 0.05970327
0002c0 fe 92 68 3d 9b 9b a6 3d b3 5d cf 3d 51 8d 1b 3d
       0.056780808 0.08135148 0.101252936 0.037976567
0002d0 cb 34 6c 3d 53 56 6d 3e a1 12 5b bc 27 81 69 3d
       0.057667535 0.23177461 -0.013371141 0.057007935
0002e0 19 80 1a 3b cc 5a e8 bd 0d e5 3a 3e be 68 96 3d
       0.0023574887 -0.11345443 0.18251438 0.07344197
0002f0 d7 cd 62 be a7 7e 46 3e 4d ac 59 3d df 3c 32 be
       -0.22148834 0.19384252 0.053142834 -0.17406033
000300 59 94 d5 bb b9 b4 70 be 8a e6 84 3d 0e a4 51 3d
       -0.0065179286 -0.2350644 0.06489284 0.051181845
000310 cc 12 00 3e 71 95 0e 3e 60 d0 5c be e3 73 35 3e
       0.1250717 0.13924195 -0.21563864 0.17719989
000320 23 c5 05 be 3e f8 84 3e 4e b6 75 be a3 fd 13 3e
       -0.13063483 0.25970644 -0.23995325 0.14452223
000330 98 63 84 3e 59 ec b0 bd 23 26 04 be e5 af 5e 3e
       0.25857234 -0.0863883 -0.12905173 0.21746786
000340 7b 66 61 3e d8 a8 17 be e9 4c 6a 3d 6d 57 2c be
       0.2201175 -0.14810503 0.057202253 -0.16830225
000350 b5 8e ea 3d 02 60 5f 3e 9f 92 8f ba b0 c7 35 3e
       0.114530005 0.21813968 -0.0010953731 0.17751956
000360 e1 c0 60 bd 26 03 76 bb 7c 2f 3b be 1e a2 89 be
       -0.054871444 -0.0037538498 -0.18279833 -0.26881498
000370 91 e4 9c 3d 8f 86 89 3e db ac 39 3e 5e f9 6a be
       0.07660783 0.26860473 0.18132345 -0.22946689
000380 a1 4c 1f 3d 9c fb 70 3d d9 2f 19 3e 72 42 2a bc
       0.03889144 0.058833703 0.14959659 -0.010391818
000390 a9 96 33 3e 72 c6 04 3e eb 46 42 be ea 54 79 3e
       0.17537941 0.12966326 -0.18972366 0.24348798
0003a0 68 4c fa 3d 7f b6 00 be ff 9b 0d 3d dc e7 ac bd
       0.122216046 -0.12569617 0.034572598 -0.08442661
0003b0 cf 3d 80 bd 74 db 27 3e 66 11 87 3d 58 24 9b be
       -0.06261789 0.16392308 0.06595115 -0.30301166
0003c0 2d dd 2b bc 35 5a 55 3d c3 92 6c bd 92 0c 10 3d
       -0.010489744 0.05208798 -0.05775715 0.035168238
0003d0 65 3e 2d 3e b8 55 29 bc 5a 9f 46 3e 0a f2 84 be
       0.16918333 -0.010335378 0.19396725 -0.2596591
0003e0 a9 62 20 3d 9e 81 90 be 8d 55 d8 bc 47 66 af 3d
       0.03915659 -0.2822389 -0.026407981 0.0856443
0003f0 13 b6 5b be d0 9f 8b be 6f 6f 34 be c8 a4 c3 3c
       -0.21456175 -0.27270365 -0.17620634 0.023882285

net.0.bias f4 [64]
000000 8e 3e 1e 3c 00 00 00 00 ab 0e 2b bd ab a1 1a bd
       0.009658469 0.0 -0.041762035 -0.037751835
000010 00 00 00 00 00 00 00 00 fb bb 75 3c 00 00 00 00
       0.0 0.0 0.014998431 0.0
000020 00 00 00 00 00 00 00 00 00 00 00 00 a0 ea 24 bd
       0.0 0.0 0.0 -0.04026282
000030 00 00 00 00 34 93 c1 3c 00 00 00 00 00 00 00 00
       0.0 0.023629762 0.0 0.0
000040 4e 3e e2 bc 18 6c 54 bc a2 df d7 3c 00 00 00 00
       -0.0276176 -0.012965225 0.026351754 0.0
000050 00 00 00 00 5f be 18 bb b8 8e ef bc b5 79 80 bd
       0.0 -0.002330683 -0.029242858 -0.06273214
000060 7d 3d a2 3c 51 8d a1 bc a7 31 a3 bb 00 00 00 00
       0.01980471 -0.019720705 -0.0049802843 0.0
000070 9e 31 4c bd bf 69 87 3c a5 1c 4e 3c 00 00 00 00
       -0.049852006 0.016529916 0.012580072 0.0
000080 00 00 00 00 00 00 00 00 00 00 00 00 8b 53 f8 bb
       0.0 0.0 0.0 -0.0075783185
000090 00 00 00 00 00 00 00 00 00 00 00 00 00 00 00 00
       0.0 0.0 0.0 0.0
0000a0 00 00 00 00 56 7e 17 bd 00 00 00 00 ae 05 93 3c
       0.0 -0.036985718 0.0 0.017947044
0000b0 00 00 00 00 00 00 00 00 00 00 00 00 93 45 b2 3c
       0.0 0.0 0.0 0.021761691
0000c0 00 00 00 00 f6 31 8e bc 1b e9 2c bd ef e1 35 bd
       0.0 -0.017357808 -0.042214494 -0.04440492
0000d0 dd 39 ca bc 00 00 00 00 00 00 00 00 00 00 00 00
       -0.024685794 0.0 0.0 0.0
0000e0 00 00 00 00 78 c4 de bc 06 71 94 bc 4e d4 e8 3a
       0.0 -0.027193293 -0.0181203 0.0017763467
0000f0 00 00 00 00 00 00 00 00 00 00 00 00 0f c7 b3 bc
       0.0 0.0 0.0 -0.021945504

net.2.weight f4 [32, 64]
000000 a1 f4 96 3d 30 25 50 3e bd 7b 71 bd d7 f9 80 3e
       0.07370878 0.20326686 -0.058955897 0.25190613
000010 24 aa 9f 3d f0 1f 0a 3e dd 14 7c bd 6f b3 a4 3d
       0.077961236 0.13488746 -0.061543334 0.08042037
000020 7e 57 0e bd e7 61 d5 bd f9 1f 09 be 72 e2 62 be
       -0.034751408 -0.10419064 -0.13391103 -0.22156695
000030 d2 54 38 be f7 49 2e be 99 b8 8b 3d d0 d2 65 be
       -0.18001106 -0.17020403 0.068223186 -0.224437
000040 59 5e 8f be 6b 2f b5 3d 27 d2 35 be 24 7a c3 bd
       -0.2800167 0.08846935 -0.17755948 -0.09544781
000050 37 19 75 3d 03 74 4f 3e 22 3a 72 bc 5d ff 95 be
       0.0598385 0.20259099 -0.014784368 -0.2929639
000060 32 68 6f be 79 ba 9d be 33 79 8a be 5a 13 95 3e
       -0.23379591 -0.3080633 -0.27045593 0.29116327
000070 eb d3 16 3e 05 a7 3e 3e bb 18 c0 3c 71 e9 e8 bd
       0.14729278 0.186184 0.023449292 -0.113726504
000080 46 6f 4d bd 75 f0 1c be 03 46 10 be dc 52 67 3e
       -0.050154947 -0.15326102 -0.14089207 0.22590202
000090 e0 d9 83 be 51 49 d2 3d a1 91 72 bc 81 46 9a bd
       -0.25752163 0.1026789 -0.014805228 -0.07532979
0000a0 32 65 97 be 4a 56 8e be 51 e9 9a 3d 41 ad 06 be
       -0.29569393 -0.27800208 0.07564033 -0.13152029
0000b0 73 6d bb 3d b6 f2 2f 3d 97 78 43 be ce 60 00 3e
       0.09151735 0.042956077 -0.1908897 0.12536928
0000c0 05 f1 83 3e 0f c6 95 be ae f4 8e 3d 8b 2d a5 3c
       0.2576982 -0.2925267 0.06980263 0.020163318
0000d0 4a 55 9e be ca ce 0e 3c 82 a0 58 3e 68 7e 5a 3e
       -0.30924445 0.008716295 0.21154979 0.21337283
0000e0 88 e2 2e 3e d5 4d 78 3e 27 47 ff bd ac 07 df 3d
       0.17078602 0.2424844 -0.12464743 0.10890135
0000f0 cb 9f 87 be ec 6b 80 3d dc 97 83 be e8 8d 9c bd
       -0.264891 0.062705845 -0.25701797 -0.07644254
000100 82 e9 ad 3d d5 db 95 3d 08 6a 7b 3e e1 06 7b be
       0.08491804 0.0731732 0.24552166 -0.24514343
000110 e2 b4 67 bd 38 6a 87 3e ba 77 68 be 6b eb 5d 3e
       -0.056568988 0.26448226 -0.22701922 0.21671836
000120 38 d4 60 3e 9b 67 dd 3d e6 c5 57 3e 4d 55 28 3e
       0.21955955 0.10810777 0.21071586 0.1643879
000130 9e 3e 82 3e 45 59 2e 3e a9 4b 86 bd ab 76 98 3d
       0.25438398 0.17026241 -0.065574 0.07444509
000140 25 81 c5 bc 7a 66 e5 ba fc c7 a2 bd ba 4b 9c be
       -0.024109432 -0.0017501854 -0.079483 -0.30526525
000150 18 b0 f4 3d 57 4e 49 3e c8 a4 14 be 5c 2e 45 be
       0.1194765 0.1965879 -0.14515984 -0.19255966
000160 5a f9 8b be c4 05 6f 3e e5 ae ce 3b 95 da 03 be
       -0.27338678 0.23342043 0.00630747 -0.12876351
000170 73 73 fd 3d b9 1e 28 be fe 6e 98 3e 90 04 8b 3c
       0.12375536 -0.1641797 0.2977218 0.016969949
000180 c5 71 8c be 1d c4 44 bd 29 f3 91 3d d6 a2 d8 bd
       -0.2743055 -0.04803859 0.07126457 -0.105779335
000190 97 00 36 bd 8e 74 46 3e 1c 35 1b be 62 19 22 3d
       -0.044434156 0.193804 -0.15156978 0.03957499
0001a0 ed d0 9b 3d bf 96 5d 3e 3a 36 8d be 41 0e 5b be
       0.07608209 0.21639536 -0.27580434 -0.21392156
0001b0 9d 1a 34 be f2 65 91 3e 1f 4c 88 3d 27 0f 26 be
       -0.17588277 0.2839809 0.06655144 -0.16216718
0001c0 34 aa 97 be a8 51 97 3e a5 27 ff 3c cb d3 27 3d
       -0.29622042 0.29554486 0.031146834 0.040973466
0001d0 d9 2e 6e bd fe 8b 3f bd 85 bc 09 3d 66 06 8b be
       -0.058150146 -0.046764366 0.03362705 -0.2715332
0001e0 f1 9e 93 be fa 01 98 3e 7f 6d 52 3e 93 32 85 3e
       -0.288322 0.29689008 0.20549582 0.26015148
0001f0 73 e4 06 3e 02 3c 88 bd 50 44 81 be 4b 35 62 bd
       0.13173084 -0.066520706 -0.2524743 -0.055226605
000200 c2 c9 14 3d 71 94 27 be ca 8e 75 bc ea c2 51 be
       0.036325224 -0.1636522 -0.014987657 -0.2048451
000210 a1 73 0b be 86 3a 01 3e 3c 3f 07 3c 19 91 8e 3e
       -0.13618328 0.12619981 0.008254822 0.27845076
000220 dc 42 b8 3d c2 f6 12 3e 33 6e 96 3e 78 2d 91 3e
       0.089971274 0.14351943 0.2938095 0.28355002
000230 d5 9b fc bc 40 f6 df 3d 06 4c 4e 3e 03 bd a7 3d
       -0.030836025 0.1093564 0.20146188 0.08190348
000240 2d 19 f9 3c 05 b4 81 bd c2 1d 61 be 52 27 91 be
       0.030407513 -0.06333164 -0.21984008 -0.28350312
000250 16 17 bf bd e6 b8 90 3e 7f 0e 2f be 9d de 0b 3e
       -0.09330575 0.28266066 -0.17095374 0.13659139
000260 48 cd 65 be 35 2e f9 bd d6 cd b5 3c 06 4d a7 3b
       -0.2244159 -0.121670164 0.022192877 0.0051056175
000270 3e 03 97 be 0c cb 0c be f3 9d 67 be 97 12 3d 3e
       -0.2949466 -0.13749331 -0.22618847 0.18464123
000280 5a 0c 0c 3e 96 f6 c9 3d c3 29 3a 3e 85 41 52 3e
       0.13676587 0.09861486 0.18179993 0.20532806
000290 b1 47 8b bc 0a 38 d2 3d eb b7 4c be 91 8d c9 3d
       -0.017001959 0.10264595 -0.19992034 0.09841455
0002a0 c6 79 23 3e f5 80 83 3e 9f 3f 2a be 4b 47 da bd
       0.15964422 0.25684324 -0.16625832 -0.10658129
0002b0 1a 8c 96 be a7 b0 30 be bb ac e1 bd f3 24 0d be
       -0.29403764 -0.17254888 -0.11019274 -0.13783626
0002c0 fa 55 35 be 44 34 03 be bd 95 4d ba 60 35 4b 3e
       -0.17708579 -0.12812907 -0.0007842442 0.1984458
0002d0 c9 22 86 3e 61 9e 1a be c0 f8 4b 3e e8 80 00 3e
       0.26198414 -0.1509948 0.1991911 0.12549174
0002e0 ca e7 8d 3e 27 37 12 bd 68 f8 e0 bc 61 57 df bc
       0.27715904 -0.03569713 -0.0274622 -0.027263345
0002f0 03 e2 58 bd ab e1 9b 3e fb 77 c7 3d 1f bc 5c bd
       -0.052949917 0.30445608 0.09739681 -0.053890344
000300 44 81 95 be 55 e2 8e be f3 79 44 be ed 75 eb bd
       -0.29200184 -0.27907053 -0.19187145 -0.11497102
000310 21 a5 59 3d 92 9a 01 3d 1f 8e f7 3c bd b6 b1 bd
       0.053135995 0.03164155 0.030219136 -0.08677433
000320 5d f1 84 be 49 4b 4c bd e0 89 cd bc 8a 1c eb bd
       -0.25965396 -0.049876485 -0.025090158 -0.11480053
000330 55 66 44 be 5b 99 34 bd 06 7f 6a 3c d2 0a bf bc
       -0.19179662 -0.044091564 0.014312511 -0.02332059
000340 c6 d6 81 3e 95 50 3c 3e 05 ce 7f 3e 26 53 27 3e
       0.25359172 0.18390115 0.24980934 0.16340312
000350 f5 7f 96 be 9e 25 7d be 1d 5e 11 be 75 9e 6c 3e
       -0.29394498 -0.24721381 -0.14196058 0.23107322
000360 4b d2 5e 3e 47 ba 73 be 60 b2 60 be d2 06 8f 3e
       0.21759908 -0.23801528 -0.21943045 0.2793489
000370 ff 99 b5 3d 7e a7 10 be 70 5f 4e bd 58 82 1e be
       0.08867263 -0.14126393 -0.050383985 -0.1547941
000380 b9 10 96 3e a7 2f c4 bc a9 36 3d bc 81 96 00 be
       0.29309633 -0.023948504 -0.0115486765 -0.12557413
000390 14 56 74 3e 5a a0 86 3e ca 4f 81 3e 5c ef be bd
       0.23860961 0.26294214 0.25256187 -0.09322998
0003a0 6b 7e 16 be 5f 54 99 be e1 8f 5d 3e 69 c7 50 be
       -0.14696662 -0.29947183 0.21636917 -0.20388569
0003b0 9d d2 bc 3d c9 ef 89 3e b0 24 2f be 13 16 28 3d
       0.09219859 0.26940754 -0.17103839 0.041036677
0003c0 0e d0 00 be 77 13 8c be 6f 6d 49 bb db 6b 02 be
       -0.12579367 -0.273586 -0.0030735394 -0.12736456
0003d0 8f 7d 4c 3e 19 3d 1c be 22 67 6a 3e 4b 2c 47 3e
       0.19969772 -0.15257682 0.22890905 0.1945049
0003e0 c1 aa 3a 3e 19 0e b0 bd ad 6e 6d be 6d 68 e8 bd
       0.182292 -0.08596439 -0.2318675 -0.11348043
0003f0 86 12 45 3e 7e b0 99 bd 9f 60 96 3e bb f8 7d 3e
       0.19245347 -0.07504366 0.2937059 0.24801914

net.2.bias f4 [32]
000000 02 96 0c bd 82 d9 a1 bb 00 00 00 00 00 00 00 00
       -0.034322746 -0.004939259 0.0 0.0
000010 89 96 6a 3c 00 00 00 00 00 00 00 00 00 00 00 00
       0.014318117 0.0 0.0 0.0
000020 a9 19 a3 bc 83 b8 11 bd 00 00 00 00 00 00 00 00
       -0.019909697 -0.035576355 0.0 0.0
000030 00 00 00 00 00 00 00 00 00 00 00 00 12 eb 0d 3d
       0.0 0.0 0.0 0.03464801
000040 64 ac 1e 3d dd 05 be bc 00 00 00 00 45 86 8a bb
       0.038738623 -0.023196155 0.0 -0.004227432
000050 00 00 00 00 00 00 00 00 00 00 00 00 89 3a 23 3d
       0.0 0.0 0.0 0.039850745
000060 00 00 00 00 ff b3 d3 bc 00 00 00 00 4d a6 06 bd
       0.0 -0.025842665 0.0 -0.03287344
000070 5b 38 c0 bc f0 6b a8 bb 2c 38 10 3c 00 00 00 00
       -0.023464372 -0.0051398203 0.008802455 0.0

net.4.weight f4 [3, 32]
000000 ca 42 bc be fe f9 09 3e 0c 37 7b 3b a6 26 86 be
       -0.36769706 0.1347427 0.003833237 -0.2620136
000010 e5 50 62 3d ca e4 06 be 86 05 c8 be 46 07 b8 3e
       0.05525293 -0.13173214 -0.39066714 0.3594305
000020 c6 d3 c6 be 3d c8 3f 3e cd a7 bf 3c 38 ed 95 bd
       -0.38833445 0.18728729 0.023395443 -0.073206365
000030 3a 31 dd 3e 10 ee db 3e f3 85 92 3e 96 7a b3 be
       0.4320162 0.42955065 0.2861782 -0.35054463
000040 a3 85 c7 3e 9b 44 49 be f5 52 63 3c 54 c7 17 3e
       0.38969144 -0.19655077 0.013874759 0.14822131
000050 b4 a3 ee 3c b4 2c 2f 3e 7f c9 e3 3d dd 93 af 3e
       0.029130794 0.17106897 0.11122417 0.34292498
000060 2a 67 7b 3e de dc 10 be e7 a7 9c 3d 04 8a 8a 3d
       0.24551073 -0.14146754 0.07649212 0.06764606
000070 78 58 b1 3e 38 ba bb be 85 86 95 3e 84 9d ae 3e
       0.3463781 -0.3666551 0.29204193 0.3410455
000080 a4 70 45 be 75 8b 8e 3e ce c5 19 3e df 6e db 3d
       -0.1928125 0.27840772 0.15016863 0.10714506
000090 05 5a 78 be 3b 8c c5 3e 6b 28 6e 3e 58 ae c3 be
       -0.2425309 0.3858355 0.23257606 -0.3821895
0000a0 74 f6 3a be cb 08 82 3e 58 77 d1 bd 03 a9 c8 3e
       -0.18258077 0.25397334 -0.10227841 0.39191446
0000b0 58 34 1c bd 7c 9a 37 be 23 71 66 be 33 2b 8a 3e
       -0.038135856 -0.17930025 -0.22504096 0.26986083
0000c0 c1 44 e7 3d d4 f0 01 3d 64 67 d6 3e 66 c0 bd be
       0.11292411 0.031723812 0.41875756 -0.3706085
0000d0 a8 93 99 3d 41 44 aa be e0 83 32 be 02 48 b1 3d
       0.07498866 -0.332552 -0.17433119 0.086563125
0000e0 56 27 a7 3e db f2 5e 3e f4 3e 7c 3e c7 53 55 bc
       0.32647198 0.2177233 0.2463339 -0.013020462
0000f0 5e c6 51 3e 4c a2 9e 3e a1 5a 07 be f0 77 ac be
       0.20485827 0.30983198 -0.13218166 -0.33685255
000100 e5 57 90 3d 57 78 11 bd b1 6f da 3e 7a a8 b3 3e
       0.070480146 -0.035515156 0.4266334 0.35089475
000110 d1 fa 06 3e b2 6b 93 be b3 9c cd 3c 74 94 09 be
       0.13181616 -0.28793103 0.025099134 -0.13435537
000120 08 0e c7 be 44 ba 10 be 24 b2 56 3d a2 e8 0e be
       -0.38877892 -0.14133555 0.052415982 -0.1395593
000130 ba 97 97 be 6f e4 bd 3e fe 66 a1 be 83 c6 87 3e
       -0.29607946 0.37088344 -0.3152389 0.2651864
000140 1a 24 9b 3d 3e 60 c2 be 84 9a b0 3e da cb cb 3d
       0.07575245 -0.37964052 0.34492886 0.09950991
000150 3f a6 a0 be 7c a0 1e be 97 c2 39 bd 9b 00 b9 3d
       -0.31376836 -0.15490907 -0.04535159 0.090333186
000160 96 a4 b7 3e 52 1c bf be 19 2f d6 bb 65 21 77 be
       0.35867757 -0.37326294 -0.006536376 -0.24133833
000170 ac 89 ce be 97 3e d2 be 34 39 1a 3d 0d 9a b3 be
       -0.4033941 -0.41063377 0.03765221 -0.3507847

net.4.bias f4 [3]
000000 61 4d 06 3d 6e 85 d3 3c 1d e5 62 3d
       0.032788638 0.02582046 0.05539428

net.0.weight f4 [64, 82]
000000 b8 51 3d 3e 2f a5 82 3e 02 9c 19 3e a8 0a 53 be
       0.18488204 0.2551665 0.15000919 -0.20609534
000010 38 87 fc bb 84 25 78 be 42 9e 1e 3e a0 23 f3 3c
       -0.007706549 -0.24233061 0.15490058 0.029680073
000020 21 59 03 3d 5b b1 c3 bd 89 b3 56 be 27 e0 3d be
       0.03206742 -0.09555312 -0.20966925 -0.18542539
000030 22 21 19 be 6c a9 82 3e 4f 60 6b 3e c7 ae ca bb
       -0.14954045 0.25519884 0.22985958 -0.006185386
000040 48 1d d2 3c cf d0 5b 3e 66 87 df bd 39 22 16 3d
       0.025648728 0.21466373 -0.10914497 0.03665373
000050 f9 1f 23 ba 02 fd 7c be 93 fe 81 3e 9a ae 2e bd
       -0.0006222721 -0.2470589 0.25389537 -0.04264698
000060 d4 3e c1 3b a2 ad b2 bc 35 99 9a 3d f1 f5 68 be
       0.0058973823 -0.02181131 0.07548753 -0.22750069
000070 18 cb f1 bd b4 dc 6b be ce a5 07 3e c9 9f 3d be
       -0.11806315 -0.2303341 0.13246843 -0.18517984
000080 1a e5 99 3d 48 3f 3e be 0b 3a 1d be 6c 60 b6 bd
       0.07514401 -0.18578827 -0.15354173 -0.0890511
000090 bc 2b ff 3c 6c c9 08 3c 1c c4 f5 bd ef 44 34 3e
       0.031148784 0.008348804 -0.120002955 0.17604421
0000a0 c0 d1 e0 3d a7 26 6e be 34 92 df 3c 5f 67 a4 bd
       0.10977507 -0.23256932 0.027291395 -0.08027529
0000b0 c9 11 42 3d 60 cf da bd aa a8 cf bd c2 47 68 be
       0.047380242 -0.10684085 -0.10139592 -0.22683623
0000c0 a7 b5 27 3e e2 b5 7f 3e 98 9a 21 be 54 96 60 be
       0.16377889 0.24971727 -0.15781629 -0.21932346
0000d0 6a 32 d7 bd 82 d6 5c bd 51 c5 ca bd b7 d4 eb bd
       -0.105076626 -0.053915508 -0.09900916 -0.115151815
0000e0 b9 45 bd bd 4c 73 98 3d de 97 ca bd 81 62 6b 3e
       -0.09241814 0.07443866 -0.098922476 0.22986795
0000f0 c9 93 b9 3d be ab 4d be 59 9d 4f 3e b0 da eb bd
       0.09061391 -0.20085046 0.20274867 -0.11516321
000100 1f fc 04 be 70 f8 41 be d7 cd 2d 3e d5 92 04 be
       -0.12986802 -0.18942428 0.16973053 -0.12946637
000110 38 b7 ac bd dd 98 44 bd c5 de 4c be 42 48 15 be
       -0.08433384 -0.047997344 -0.20006855 -0.14578345
000120 bd ca 68 3e 6e 98 90 be 1c 80 43 3b 61 a9 2f 3d
       0.22733589 -0.28241295 0.0029830998 0.04288614
000130 ef 8e 0e be 70 4b 48 bd c1 57 14 be ef 26 4b 3e
       -0.13921712 -0.048900068 -0.144866 0.1983907
000140 0c 41 89 3e d7 3a 69 3d 8c 25 54 3e 9c 45 d6 bd
       0.2680744 0.05694088 0.20717448 -0.10462496
000150 d7 32 41 3e 1a 9a 60 3e 2d 07 9c bc 7f b0 04 3e
       0.1886705 0.21933785 -0.01904639 0.12957953
000160 84 13 29 be 31 c2 b6 3d 66 58 81 be 22 a0 02 bc
       -0.16511351 0.08923758 -0.25262755 -0.007972749
000170 02 f9 02 3e 8a f2 c9 bc fb 7c 95 3d aa 8d a4 bd
       0.12790301 -0.024651784 0.07299229 -0.08034833
000180 74 81 0c bd ad e9 b4 bd 71 90 08 3e 22 04 e4 bd
       -0.034303144 -0.088336326 0.1333635 -0.11133601
000190 b7 72 af bc ab 3e 6c be 6d 16 35 3e f3 b0 40 bc
       -0.021417005 -0.23070781 0.17684336 -0.011760938
0001a0 9b 4e 11 3e b6 c2 50 3e 96 16 1e bc e6 aa 81 be
       0.14190142 0.20386776 -0.00964894 -0.25325698
0001b0 48 84 83 be eb 21 9d bc 1b 6a de 3d 47 eb 77 3e
       -0.2568686 -0.019181212 0.10860082 0.24210845
0001c0 4b 15 39 3e 06 47 66 be 5c 09 11 bd ed 62 25 be
       0.18074529 -0.22488031 -0.035409316 -0.16151018
0001d0 e8 ab ac 3b 7b d2 e3 3d be 3c 78 bd 72 c4 26 3e
       0.0052695163 0.1112413 -0.060604803 0.16285875
0001e0 75 6b ac 3c 02 48 2f 3d 10 13 83 3e e4 c6 1d 3d
       0.021047333 0.04279328 0.2560048 0.038519755
0001f0 9f 40 04 3e d2 2b ed bc 93 8f 85 3e 35 55 19 be
       0.12915276 -0.02895156 0.260861 -0.1497391
000200 e9 72 a9 3d b1 6b 68 be 2e e3 18 bd 1a 74 42 be
       0.082738705 -0.22697331 -0.03732603 -0.18989602
000210 ca d2 e2 3d e9 2b 1f be 1c d1 41 be 0f b8 a9 3c
       0.11075361 -0.15544094 -0.18927425 0.020717649
000220 25 1f 57 bd fd b8 b7 bd ad 35 2e be 02 de 6c 3e
       -0.052519936 -0.089708306 -0.17012663 0.23131564
000230 73 0a 81 bd b0 04 af ba 11 4c 92 3d ea a1 16 3e
       -0.06300821 -0.0013352837 0.07143415 0.14710203
000240 89 c4 84 be fa 2a 01 bc da ec 2a 3e c3 2e 1c 3e
       -0.25931194 -0.007883782 0.16691914 0.15252213
000250 01 12 86 3e 3c 11 fd bb d6 33 d0 bd a4 78 a2 3d
       0.2618561 -0.0077230018 -0.10166137 0.079331666
000260 00 61 d9 3c 07 38 62 3e b9 c0 20 be c7 73 80 be
       0.026535511 0.22091685 -0.15698518 -0.2508833
000270 e2 5d 25 3e a1 1d 39 3d 82 ed 44 3e b1 1f 6b bd
       0.16149095 0.045194272 0.19231227 -0.05740327
000280 9b c6 84 be 6f ea 35 3e f0 40 d4 bc 60 4b 62 3e
       -0.25932774 0.1776521 -0.02590987 0.22099066
000290 63 fc 8c be 78 e6 5f be e6 b7 4c bd 9a be 95 be
       -0.27536306 -0.2186526 -0.049980067 -0.2924698
0002a0 e7 5c 29 be 2b a9 0a be 4a 83 15 3e e4 4c 1e 3e
       -0.16539346 -0.13541095 0.14600864 0.15459019
0002b0 e5 95 72 be f2 e2 45 be e8 ec 97 bc 6b 8b 74 3d
       -0.23689993 -0.19324854 -0.018545583 0.05970327
0002c0 fe 92 68 3d 9b 9b a6 3d b3 5d cf 3d 51 8d 1b 3d
       0.056780808 0.08135148 0.101252936 0.037976567
0002d0 cb 34 6c 3d 53 56 6d 3e a1 12 5b bc 27 81 69 3d
       0.057667535 0.23177461 -0.013371141 0.057007935
0002e0 19 80 1a 3b cc 5a e8 bd 0d e5 3a 3e be 68 96 3d
       0.0023574887 -0.11345443 0.18251438 0.07344197
0002f0 d7 cd 62 be a7 7e 46 3e 4d ac 59 3d df 3c 32 be
       -0.22148834 0.19384252 0.053142834 -0.17406033
000300 59 94 d5 bb b9 b4 70 be 8a e6 84 3d 0e a4 51 3d
       -0.0065179286 -0.2350644 0.06489284 0.051181845
000310 cc 12 00 3e 71 95 0e 3e 60 d0 5c be e3 73 35 3e
       0.1250717 0.13924195 -0.21563864 0.17719989
000320 23 c5 05 be 3e f8 84 3e 4e b6 75 be a3 fd 13 3e
       -0.13063483 0.25970644 -0.23995325 0.14452223
000330 98 63 84 3e 59 ec b0 bd 23 26 04 be e5 af 5e 3e
       0.25857234 -0.0863883 -0.12905173 0.21746786
000340 7b 66 61 3e d8 a8 17 be e9 4c 6a 3d 6d 57 2c be
       0.2201175 -0.14810503 0.057202253 -0.16830225
000350 b5 8e ea 3d 02 60 5f 3e 9f 92 8f ba b0 c7 35 3e
       0.114530005 0.21813968 -0.0010953731 0.17751956
000360 e1 c0 60 bd 26 03 76 bb 7c 2f 3b be 1e a2 89 be
       -0.054871444 -0.0037538498 -0.18279833 -0.26881498
000370 91 e4 9c 3d 8f 86 89 3e db ac 39 3e 5e f9 6a be
       0.07660783 0.26860473 0.18132345 -0.22946689
000380 a1 4c 1f 3d 9c fb 70 3d d9 2f 19 3e 72 42 2a bc
       0.03889144 0.058833703 0.14959659 -0.010391818
000390 a9 96 33 3e 72 c6 04 3e eb 46 42 be ea 54 79 3e
       0.17537941 0.12966326 -0.18972366 0.24348798
0003a0 68 4c fa 3d 7f b6 00 be ff 9b 0d 3d dc e7 ac bd
       0.122216046 -0.12569617 0.034572598 -0.08442661
0003b0 cf 3d 80 bd 74 db 27 3e 66 11 87 3d 58 24 9b be
       -0.06261789 0.16392308 0.06595115 -0.30301166
0003c0 2d dd 2b bc 35 5a 55 3d c3 92 6c bd 92 0c 10 3d
       -0.010489744 0.05208798 -0.05775715 0.035168238
0003d0 65 3e 2d 3e b8 55 29 bc 5a 9f 46 3e 0a f2 84 be
       0.16918333 -0.010335378 0.19396725 -0.2596591
0003e0 a9 62 20 3d 9e 81 90 be 8d 55 d8 bc 47 66 af 3d
       0.03915659 -0.2822389 -0.026407981 0.0856443
0003f0 13 b6 5b be d0 9f 8b be 6f 6f 34 be c8 a4 c3 3c
       -0.21456175 -0.27270365 -0.17620634 0.023882285

net.0.bias f4 [64]
000000 8e 3e 1e 3c 00 00 00 00 ab 0e 2b bd ab a1 1a bd
       0.009658469 0.0 -0.041762035 -0.037751835
000010 00 00 00 00 00 00 00 00 fb bb 75 3c 00 00 00 00
       0.0 0.0 0.014998431 0.0
000020 00 00 00 00 00 00 00 00 00 00 00 00 a0 ea 24 bd
       0.0 0.0 0.0 -0.04026282
000030 00 00 00 00 34 93 c1 3c 00 00 00 00 00 00 00 00
       0.0 0.023629762 0.0 0.0
000040 4e 3e e2 bc 18 6c 54 bc a2 df d7 3c 00 00 00 00
       -0.0276176 -0.012965225 0.026351754 0.0
000050 00 00 00 00 5f be 18 bb b8 8e ef bc b5 79 80 bd
       0.0 -0.002330683 -0.029242858 -0.06273214
000060 7d 3d a2 3c 51 8d a1 bc a7 31 a3 bb 00 00 00 00
       0.01980471 -0.019720705 -0.0049802843 0.0
000070 9e 31 4c bd bf 69 87 3c a5 1c 4e 3c 00 00 00 00
       -0.049852006 0.016529916 0.012580072 0.0
000080 00 00 00 00 00 00 00 00 00 00 00 00 8b 53 f8 bb
       0.0 0.0 0.0 -0.0075783185
000090 00 00 00 00 00 00 00 00 00 00 00 00 00 00 00 00
       0.0 0.0 0.0 0.0
0000a0 00 00 00 00 56 7e 17 bd 00 00 00 00 ae 05 93 3c
       0.0 -0.036985718 0.0 0.017947044
0000b0 00 00 00 00 00 00 00 00 00 00 00 00 93 45 b2 3c
       0.0 0.0 0.0 0.021761691
0000c0 00 00 00 00 f6 31 8e bc 1b e9 2c bd ef e1 35 bd
       0.0 -0.017357808 -0.042214494 -0.04440492
0000d0 dd 39 ca bc 00 00 00 00 00 00 00 00 00 00 00 00
       -0.024685794 0.0 0.0 0.0
0000e0 00 00 00 00 78 c4 de bc 06 71 94 bc 4e d4 e8 3a
       0.0 -0.027193293 -0.0181203 0.0017763467
0000f0 00 00 00 00 00 00 00 00 00 00 00 00 0f c7 b3 bc
       0.0 0.0 0.0 -0.021945504

net.2.weight f4 [32, 64]
000000 a1 f4 96 3d 30 25 50 3e bd 7b 71 bd d7 f9 80 3e
       0.07370878 0.20326686 -0.058955897 0.25190613
000010 24 aa 9f 3d f0 1f 0a 3e dd 14 7c bd 6f b3 a4 3d
       0.077961236 0.13488746 -0.061543334 0.08042037
000020 7e 57 0e bd e7 61 d5 bd f9 1f 09 be 72 e2 62 be
       -0.034751408 -0.10419064 -0.13391103 -0.22156695
000030 d2 54 38 be f7 49 2e be 99 b8 8b 3d d0 d2 65 be
       -0.18001106 -0.17020403 0.068223186 -0.224437
000040 59 5e 8f be 6b 2f b5 3d 27 d2 35 be 24 7a c3 bd
       -0.2800167 0.08846935 -0.17755948 -0.09544781
000050 37 19 75 3d 03 74 4f 3e 22 3a 72 bc 5d ff 95 be
       0.0598385 0.20259099 -0.014784368 -0.2929639
000060 32 68 6f be 79 ba 9d be 33 79 8a be 5a 13 95 3e
       -0.23379591 -0.3080633 -0.27045593 0.29116327
000070 eb d3 16 3e 05 a7 3e 3e bb 18 c0 3c 71 e9 e8 bd
       0.14729278 0.186184 0.023449292 -0.113726504
000080 46 6f 4d bd 75 f0 1c be 03 46 10 be dc 52 67 3e
       -0.050154947 -0.15326102 -0.14089207 0.22590202
000090 e0 d9 83 be 51 49 d2 3d a1 91 72 bc 81 46 9a bd
       -0.25752163 0.1026789 -0.014805228 -0.07532979
0000a0 32 65 97 be 4a 56 8e be 51 e9 9a 3d 41 ad 06 be
       -0.29569393 -0.27800208 0.07564033 -0.13152029
0000b0 73 6d bb 3d b6 f2 2f 3d 97 78 43 be ce 60 00 3e
       0.09151735 0.042956077 -0.1908897 0.12536928
0000c0 05 f1 83 3e 0f c6 95 be ae f4 8e 3d 8b 2d a5 3c
       0.2576982 -0.2925267 0.06980263 0.020163318
0000d0 4a 55 9e be ca ce 0e 3c 82 a0 58 3e 68 7e 5a 3e
       -0.30924445 0.008716295 0.21154979 0.21337283
0000e0 88 e2 2e 3e d5 4d 78 3e 27 47 ff bd ac 07 df 3d
       0.17078602 0.2424844 -0.12464743 0.10890135
0000f0 cb 9f 87 be ec 6b 80 3d dc 97 83 be e8 8d 9c bd
       -0.264891 0.062705845 -0.25701797 -0.07644254
000100 82 e9 ad 3d d5 db 95 3d 08 6a 7b 3e e1 06 7b be
       0.08491804 0.0731732 0.24552166 -0.24514343
000110 e2 b4 67 bd 38 6a 87 3e ba 77 68 be 6b eb 5d 3e
       -0.056568988 0.26448226 -0.22701922 0.21671836
000120 38 d4 60 3e 9b 67 dd 3d e6 c5 57 3e 4d 55 28 3e
       0.21955955 0.10810777 0.21071586 0.1643879
000130 9e 3e 82 3e 45 59 2e 3e a9 4b 86 bd ab 76 98 3d
       0.25438398 0.17026241 -0.065574 0.07444509
000140 25 81 c5 bc 7a 66 e5 ba fc c7 a2 bd ba 4b 9c be
       -0.024109432 -0.0017501854 -0.079483 -0.30526525
000150 18 b0 f4 3d 57 4e 49 3e c8 a4 14 be 5c 2e 45 be
       0.1194765 0.1965879 -0.14515984 -0.19255966
000160 5a f9 8b be c4 05 6f 3e e5 ae ce 3b 95 da 03 be
       -0.27338678 0.23342043 0.00630747 -0.12876351
000170 73 73 fd 3d b9 1e 28 be fe 6e 98 3e 90 04 8b 3c
       0.12375536 -0.1641797 0.2977218 0.016969949
000180 c5 71 8c be 1d c4 44 bd 29 f3 91 3d d6 a2 d8 bd
       -0.2743055 -0.04803859 0.07126457 -0.105779335
000190 97 00 36 bd 8e 74 46 3e 1c 35 1b be 62 19 22 3d
       -0.044434156 0.193804 -0.15156978 0.03957499
0001a0 ed d0 9b 3d bf 96 5d 3e 3a 36 8d be 41 0e 5b be
       0.07608209 0.21639536 -0.27580434 -0.21392156
0001b0 9d 1a 34 be f2 65 91 3e 1f 4c 88 3d 27 0f 26 be
       -0.17588277 0.2839809 0.06655144 -0.16216718
0001c0 34 aa 97 be a8 51 97 3e a5 27 ff 3c cb d3 27 3d
       -0.29622042 0.29554486 0.031146834 0.040973466
0001d0 d9 2e 6e bd fe 8b 3f bd 85 bc 09 3d 66 06 8b be
       -0.058150146 -0.046764366 0.03362705 -0.2715332
0001e0 f1 9e 93 be fa 01 98 3e 7f 6d 52 3e 93 32 85 3e
       -0.288322 0.29689008 0.20549582 0.26015148
0001f0 73 e4 06 3e 02 3c 88 bd 50 44 81 be 4b 35 62 bd
       0.13173084 -0.066520706 -0.2524743 -0.055226605
000200 c2 c9 14 3d 71 94 27 be ca 8e 75 bc ea c2 51 be
       0.036325224 -0.1636522 -0.014987657 -0.2048451
000210 a1 73 0b be 86 3a 01 3e 3c 3f 07 3c 19 91 8e 3e
       -0.13618328 0.12619981 0.008254822 0.27845076
000220 dc 42 b8 3d c2 f6 12 3e 33 6e 96 3e 78 2d 91 3e
       0.089971274 0.14351943 0.2938095 0.28355002
000230 d5 9b fc bc 40 f6 df 3d 06 4c 4e 3e 03 bd a7 3d
       -0.030836025 0.1093564 0.20146188 0.08190348
000240 2d 19 f9 3c 05 b4 81 bd c2 1d 61 be 52 27 91 be
       0.030407513 -0.06333164 -0.21984008 -0.28350312
000250 16 17 bf bd e6 b8 90 3e 7f 0e 2f be 9d de 0b 3e
       -0.09330575 0.28266066 -0.17095374 0.13659139
000260 48 cd 65 be 35 2e f9 bd d6 cd b5 3c 06 4d a7 3b
       -0.2244159 -0.121670164 0.022192877 0.0051056175
000270 3e 03 97 be 0c cb 0c be f3 9d 67 be 97 12 3d 3e
       -0.2949466 -0.13749331 -0.22618847 0.18464123
000280 5a 0c 0c 3e 96 f6 c9 3d c3 29 3a 3e 85 41 52 3e
       0.13676587 0.09861486 0.18179993 0.20532806
000290 b1 47 8b bc 0a 38 d2 3d eb b7 4c be 91 8d c9 3d
       -0.017001959 0.10264595 -0.19992034 0.09841455
0002a0 c6 79 23 3e f5 80 83 3e 9f 3f 2a be 4b 47 da bd
       0.15964422 0.25684324 -0.16625832 -0.10658129
0002b0 1a 8c 96 be a7 b0 30 be bb ac e1 bd f3 24 0d be
       -0.29403764 -0.17254888 -0.11019274 -0.13783626
0002c0 fa 55 35 be 44 34 03 be bd 95 4d ba 60 35 4b 3e
       -0.17708579 -0.12812907 -0.0007842442 0.1984458
0002d0 c9 22 86 3e 61 9e 1a be c0 f8 4b 3e e8 80 00 3e
       0.26198414 -0.1509948 0.1991911 0.12549174
0002e0 ca e7 8d 3e 27 37 12 bd 68 f8 e0 bc 61 57 df bc
       0.27715904 -0.03569713 -0.0274622 -0.027263345
0002f0 03 e2 58 bd ab e1 9b 3e fb 77 c7 3d 1f bc 5c bd
       -0.052949917 0.30445608 0.09739681 -0.053890344
000300 44 81 95 be 55 e2 8e be f3 79 44 be ed 75 eb bd
       -0.29200184 -0.27907053 -0.19187145 -0.11497102
000310 21 a5 59 3d 92 9a 01 3d 1f 8e f7 3c bd b6 b1 bd
       0.053135995 0.03164155 0.030219136 -0.08677433
000320 5d f1 84 be 49 4b 4c bd e0 89 cd bc 8a 1c eb bd
       -0.25965396 -0.049876485 -0.025090158 -0.11480053
000330 55 66 44 be 5b 99 34 bd 06 7f 6a 3c d2 0a bf bc
       -0.19179662 -0.044091564 0.014312511 -0.02332059
000340 c6 d6 81 3e 95 50 3c 3e 05 ce 7f 3e 26 53 27 3e
       0.25359172 0.18390115 0.24980934 0.16340312
000350 f5 7f 96 be 9e 25 7d be 1d 5e 11 be 75 9e 6c 3e
       -0.29394498 -0.24721381 -0.14196058 0.23107322
000360 4b d2 5e 3e 47 ba 73 be 60 b2 60 be d2 06 8f 3e
       0.21759908 -0.23801528 -0.21943045 0.2793489
000370 ff 99 b5 3d 7e a7 10 be 70 5f 4e bd 58 82 1e be
       0.08867263 -0.14126393 -0.050383985 -0.1547941
000380 b9 10 96 3e a7 2f c4 bc a9 36 3d bc 81 96 00 be
       0.29309633 -0.023948504 -0.0115486765 -0.12557413
000390 14 56 74 3e 5a a0 86 3e ca 4f 81 3e 5c ef be bd
       0.23860961 0.26294214 0.25256187 -0.09322998
0003a0 6b 7e 16 be 5f 54 99 be e1 8f 5d 3e 69 c7 50 be
       -0.14696662 -0.29947183 0.21636917 -0.20388569
0003b0 9d d2 bc 3d c9 ef 89 3e b0 24 2f be 13 16 28 3d
       0.09219859 0.26940754 -0.17103839 0.041036677
0003c0 0e d0 00 be 77 13 8c be 6f 6d 49 bb db 6b 02 be
       -0.12579367 -0.273586 -0.0030735394 -0.12736456
0003d0 8f 7d 4c 3e 19 3d 1c be 22 67 6a 3e 4b 2c 47 3e
       0.19969772 -0.15257682 0.22890905 0.1945049
0003e0 c1 aa 3a 3e 19 0e b0 bd ad 6e 6d be 6d 68 e8 bd
       0.182292 -0.08596439 -0.2318675 -0.11348043
0003f0 86 12 45 3e 7e b0 99 bd 9f 60 96 3e bb f8 7d 3e
       0.19245347 -0.07504366 0.2937059 0.24801914

net.2.bias f4 [32]
000000 02 96 0c bd 82 d9 a1 bb 00 00 00 00 00 00 00 00
       -0.034322746 -0.004939259 0.0 0.0
000010 89 96 6a 3c 00 00 00 00 00 00 00 00 00 00 00 00
       0.014318117 0.0 0.0 0.0
000020 a9 19 a3 bc 83 b8 11 bd 00 00 00 00 00 00 00 00
       -0.019909697 -0.035576355 0.0 0.0
000030 00 00 00 00 00 00 00 00 00 00 00 00 12 eb 0d 3d
       0.0 0.0 0.0 0.03464801
000040 64 ac 1e 3d dd 05 be bc 00 00 00 00 45 86 8a bb
       0.038738623 -0.023196155 0.0 -0.004227432
000050 00 00 00 00 00 00 00 00 00 00 00 00 89 3a 23 3d
       0.0 0.0 0.0 0.039850745
000060 00 00 00 00 ff b3 d3 bc 00 00 00 00 4d a6 06 bd
       0.0 -0.025842665 0.0 -0.03287344
000070 5b 38 c0 bc f0 6b a8 bb 2c 38 10 3c 00 00 00 00
       -0.023464372 -0.0051398203 0.008802455 0.0

net.4.weight f4 [3, 32]
000000 ca 42 bc be fe f9 09 3e 0c 37 7b 3b a6 26 86 be
       -0.36769706 0.1347427 0.003833237 -0.2620136
000010 e5 50 62 3d ca e4 06 be 86 05 c8 be 46 07 b8 3e
       0.05525293 -0.13173214 -0.39066714 0.3594305
000020 c6 d3 c6 be 3d c8 3f 3e cd a7 bf 3c 38 ed 95 bd
       -0.38833445 0.18728729 0.023395443 -0.073206365
000030 3a 31 dd 3e 10 ee db 3e f3 85 92 3e 96 7a b3 be
       0.4320162 0.42955065 0.2861782 -0.35054463
000040 a3 85 c7 3e 9b 44 49 be f5 52 63 3c 54 c7 17 3e
       0.38969144 -0.19655077 0.013874759 0.14822131
000050 b4 a3 ee 3c b4 2c 2f 3e 7f c9 e3 3d dd 93 af 3e
       0.029130794 0.17106897 0.11122417 0.34292498
000060 2a 67 7b 3e de dc 10 be e7 a7 9c 3d 04 8a 8a 3d
       0.24551073 -0.14146754 0.07649212 0.06764606
000070 78 58 b1 3e 38 ba bb be 85 86 95 3e 84 9d ae 3e
       0.3463781 -0.3666551 0.29204193 0.3410455
000080 a4 70 45 be 75 8b 8e 3e ce c5 19 3e df 6e db 3d
       -0.1928125 0.27840772 0.15016863 0.10714506
000090 05 5a 78 be 3b 8c c5 3e 6b 28 6e 3e 58 ae c3 be
       -0.2425309 0.3858355 0.23257606 -0.3821895
0000a0 74 f6 3a be cb 08 82 3e 58 77 d1 bd 03 a9 c8 3e
       -0.18258077 0.25397334 -0.10227841 0.39191446
0000b0 58 34 1c bd 7c 9a 37 be 23 71 66 be 33 2b 8a 3e
       -0.038135856 -0.17930025 -0.22504096 0.26986083
0000c0 c1 44 e7 3d d4 f0 01 3d 64 67 d6 3e 66 c0 bd be
       0.11292411 0.031723812 0.41875756 -0.3706085
0000d0 a8 93 99 3d 41 44 aa be e0 83 32 be 02 48 b1 3d
       0.07498866 -0.332552 -0.17433119 0.086563125
0000e0 56 27 a7 3e db f2 5e 3e f4 3e 7c 3e c7 53 55 bc
       0.32647198 0.2177233 0.2463339 -0.013020462
0000f0 5e c6 51 3e 4c a2 9e 3e a1 5a 07 be f0 77 ac be
       0.20485827 0.30983198 -0.13218166 -0.33685255
000100 e5 57 90 3d 57 78 11 bd b1 6f da 3e 7a a8 b3 3e
       0.070480146 -0.035515156 0.4266334 0.35089475
000110 d1 fa 06 3e b2 6b 93 be b3 9c cd 3c 74 94 09 be
       0.13181616 -0.28793103 0.025099134 -0.13435537
000120 08 0e c7 be 44 ba 10 be 24 b2 56 3d a2 e8 0e be
       -0.38877892 -0.14133555 0.052415982 -0.1395593
000130 ba 97 97 be 6f e4 bd 3e fe 66 a1 be 83 c6 87 3e
       -0.29607946 0.37088344 -0.3152389 0.2651864
000140 1a 24 9b 3d 3e 60 c2 be 84 9a b0 3e da cb cb 3d
       0.07575245 -0.37964052 0.34492886 0.09950991
000150 3f a6 a0 be 7c a0 1e be 97 c2 39 bd 9b 00 b9 3d
       -0.31376836 -0.15490907 -0.04535159 0.090333186
000160 96 a4 b7 3e 52 1c bf be 19 2f d6 bb 65 21 77 be
       0.35867757 -0.37326294 -0.006536376 -0.24133833
000170 ac 89 ce be 97 3e d2 be 34 39 1a 3d 0d 9a b3 be
       -0.4033941 -0.41063377 0.03765221 -0.3507847

net.4.bias f4 [3]
000000 61 4d 06 3d 6e 85 d3 3c 1d e5 62 3d
       0.032788638 0.02582046 0.05539428

net.0.weight f4 [64, 82]
000000 b3 37 3a 3e e7 18 81 3e 28 7e 16 3e bf 26 56 be
       0.1818531 0.2521431 0.14696562 -0.20913218
000010 e4 f4 2f bc 89 3f 7b be a0 85 1b 3e 66 34 da 3c
       -0.010739539 -0.24535955 0.15187693 0.026636314
000020 b8 d2 ed 3c 84 e7 c9 bd 8e cd 59 be c9 f8 40 be
       0.029031143 -0.09858611 -0.21269819 -0.18844904
000030 fc 3e 1c be 7a 1b 81 3e 41 45 68 3e 39 f8 16 bc
       -0.15258402 0.25216275 0.22682668 -0.009214454
000040 7f 58 b9 3c f5 b2 58 3e 66 bf e5 bd b5 b5 09 3d
       0.022625206 0.21162017 -0.11218147 0.033620555
000050 57 4c 6f bb d2 0a 80 be 94 6f 80 3e 65 1e 3b bd
       -0.0036514008 -0.25008255 0.25085127 -0.045683283
000060 a6 b8 3b 3b a2 ad b2 bc 35 99 9a 3d f1 f5 68 be
       0.0028643995 -0.02181131 0.07548753 -0.22750069
000070 18 cb f1 bd b4 dc 6b be ce a5 07 3e c9 9f 3d be
       -0.11806315 -0.2303341 0.13246843 -0.18517984
000080 1a e5 99 3d 48 3f 3e be 0b 3a 1d be 6c 60 b6 bd
       0.07514401 -0.18578827 -0.15354173 -0.0890511
000090 bc 2b ff 3c 6c c9 08 3c 1c c4 f5 bd ef 44 34 3e
       0.031148784 0.008348804 -0.120002955 0.17604421
0000a0 c0 d1 e0 3d a7 26 6e be 34 92 df 3c 5f 67 a4 bd
       0.10977507 -0.23256932 0.027291395 -0.08027529
0000b0 c9 11 42 3d 15 b4 df bd e6 35 cc bd fb 08 6c be
       0.047380242 -0.1092302 -0.09971218 -0.23050301
0000c0 be 92 28 3e 03 ec 7f 3e 7d a2 1a be b9 db 5d be
       0.16462228 0.24992375 -0.15101047 -0.21665849
0000d0 82 75 ce bd 3d 49 57 bd 76 c7 c9 bd d2 b6 d5 bd
       -0.100810066 -0.05256008 -0.09852497 -0.10435261
0000e0 09 dd af bd 2b 0e ac 3d bd 54 ba bd 8f f0 71 3e
       -0.08587081 0.0840114 -0.09098194 0.23626922
0000f0 2b 8b d5 3d b9 23 42 be b2 55 5d 3e 84 e6 d4 bd
       0.10426935 -0.1895894 0.21614721 -0.1039553
000100 7c 9f f6 bd 82 62 31 be 7e 20 3b 3e d7 f3 e9 bd
       -0.12042138 -0.17322734 0.18274114 -0.11423462
000110 a0 35 90 bd 4a ed 11 bd ad 83 35 be b3 a2 01 be
       -0.07041478 -0.035626687 -0.17726012 -0.12659721
000120 d7 d1 7d 3e 9a 54 87 be da f2 9c 3c 4b eb 8e 3d
       0.24787079 -0.26431733 0.01915877 0.06978472
000130 02 3b ec bd d2 a3 c2 bc 46 f4 f9 bd 4c 01 61 3e
       -0.11534692 -0.023759756 -0.122047946 0.21973151
000140 89 53 84 3e 15 bb 04 3e 8c 25 54 3e 9c 45 d6 bd
       0.25844982 0.12961991 0.20717448 -0.10462496
000150 d7 32 41 3e 1a 9a 60 3e 2d 07 9c bc 7f b0 04 3e
       0.1886705 0.21933785 -0.01904639 0.12957953
000160 84 13 29 be 31 c2 b6 3d 66 58 81 be 22 a0 02 bc
       -0.16511351 0.08923758 -0.25262755 -0.007972749
000170 02 f9 02 3e 8a f2 c9 bc fb 7c 95 3d aa 8d a4 bd
       0.12790301 -0.024651784 0.07299229 -0.08034833
000180 74 81 0c bd ad e9 b4 bd 71 90 08 3e 22 04 e4 bd
       -0.034303144 -0.088336326 0.1333635 -0.11133601
000190 b7 72 af bc ab 3e 6c be 6d 16 35 3e f3 b0 40 bc
       -0.021417005 -0.23070781 0.17684336 -0.011760938
0001a0 9b 4e 11 3e b6 c2 50 3e 96 16 1e bc e6 aa 81 be
       0.14190142 0.20386776 -0.00964894 -0.25325698
0001b0 48 84 83 be eb 21 9d bc 1b 6a de 3d 47 eb 77 3e
       -0.2568686 -0.019181212 0.10860082 0.24210845
0001c0 4b 15 39 3e 06 47 66 be 5c 09 11 bd ed 62 25 be
       0.18074529 -0.22488031 -0.035409316 -0.16151018
0001d0 e8 ab ac 3b 7b d2 e3 3d be 3c 78 bd 72 c4 26 3e
       0.0052695163 0.1112413 -0.060604803 0.16285875
0001e0 75 6b ac 3c 02 48 2f 3d 10 13 83 3e e4 c6 1d 3d
       0.021047333 0.04279328 0.2560048 0.038519755
0001f0 9f 40 04 3e d2 2b ed bc 93 8f 85 3e 35 55 19 be
       0.12915276 -0.02895156 0.260861 -0.1497391
000200 e9 72 a9 3d b1 6b 68 be 2e e3 18 bd 1a 74 42 be
       0.082738705 -0.22697331 -0.03732603 -0.18989602
000210 ca d2 e2 3d e9 2b 1f be 1c d1 41 be 0f b8 a9 3c
       0.11075361 -0.15544094 -0.18927425 0.020717649
000220 25 1f 57 bd fd b8 b7 bd ad 35 2e be 02 de 6c 3e
       -0.052519936 -0.089708306 -0.17012663 0.23131564
000230 73 0a 81 bd b0 04 af ba 11 4c 92 3d ea a1 16 3e
       -0.06300821 -0.0013352837 0.07143415 0.14710203
000240 89 c4 84 be fa 2a 01 bc da ec 2a 3e c3 2e 1c 3e
       -0.25931194 -0.007883782 0.16691914 0.15252213
000250 01 12 86 3e 3c 11 fd bb d6 33 d0 bd a4 78 a2 3d
       0.2618561 -0.0077230018 -0.10166137 0.079331666
000260 00 61 d9 3c 07 38 62 3e b9 c0 20 be c7 73 80 be
       0.026535511 0.22091685 -0.15698518 -0.2508833
000270 e2 5d 25 3e a1 1d 39 3d 82 ed 44 3e b1 1f 6b bd
       0.16149095 0.045194272 0.19231227 -0.05740327
000280 9b c6 84 be 6f ea 35 3e f0 40 d4 bc 60 4b 62 3e
       -0.25932774 0.1776521 -0.02590987 0.22099066
000290 ef 9a 75 be ff 7f 3b be 97 bd 6c bc 61 93 83 be
       -0.23984884 -0.18310545 -0.014449499 -0.2569838
0002a0 77 0d 05 be fa 95 cc bd c3 e9 39 3e 1f af 42 3e
       -0.12993418 -0.09989543 0.1815558 0.19012116
0002b0 b0 3f 4e be 82 93 21 be 3f 04 8b 3c 1d 13 c3 3d
       -0.20141482 -0.15778926 0.016969798 0.0952513
0002c0 bc 0d bd 3d 5e 48 ef 3d 53 fe 0b 3e 10 83 96 3d
       0.09231135 0.11683725 0.13671236 0.07349217
0002d0 ce e7 be 3d 46 dc 88 3e 61 29 b5 3c 71 5f bd 3d
       0.09321557 0.26730555 0.022114458 0.0924672
0002e0 a5 20 1b 3d 25 8d 9f bd 48 47 5f 3e 81 15 df 3d
       0.03787293 -0.07790593 0.21804535 0.108927734
0002f0 67 7e 3e be a7 7e 46 3e 4d ac 59 3d df 3c 32 be
       -0.18602906 0.19384252 0.053142834 -0.17406033
000300 59 94 d5 bb b9 b4 70 be 8a e6 84 3d 0e a4 51 3d
       -0.0065179286 -0.2350644 0.06489284 0.051181845
000310 cc 12 00 3e 71 95 0e 3e 60 d0 5c be e3 73 35 3e
       0.1250717 0.13924195 -0.21563864 0.17719989
000320 23 c5 05 be 3e f8 84 3e 4e b6 75 be a3 fd 13 3e
       -0.13063483 0.25970644 -0.23995325 0.14452223
000330 98 63 84 3e 59 ec b0 bd 23 26 04 be e5 af 5e 3e
       0.25857234 -0.0863883 -0.12905173 0.21746786
000340 7b 66 61 3e 0a 25 10 be e9 ce 8a 3d 49 1b 32 be
       0.2201175 -0.1407663 0.06777746 -0.17393221
000350 91 f5 cc 3d c5 9f 56 3e d7 be 3a bc bc 01 25 3e
       0.100077756 0.20959385 -0.011398039 0.16113943
000360 79 d6 7b bd 25 dd b1 3b ab 70 2b be 74 d0 89 be
       -0.061483834 0.005427974 -0.16742198 -0.2691685
000370 2e 54 84 3d c7 b7 84 3e 24 de 39 3e cc 33 65 be
       0.064613685 0.2592146 0.18151146 -0.2238304
000380 d4 53 56 3d 13 38 71 3d c9 8a 1a 3e 58 5f 27 3a
       0.05232604 0.058891367 0.15092005 0.0006384752
000390 7f be 41 3e b2 f7 21 3e 1b 85 31 be ae 71 85 3e
       0.18920325 0.15817145 -0.17335932 0.26063293
0003a0 dd 7c 16 3e 8c 6d ca bd 94 c8 8f 3d 4c 18 77 bd
       0.14696069 -0.09884176 0.07020679 -0.060325906
0003b0 49 2b 1d bd f5 c6 48 3e eb f6 d0 3d 8f da 83 be
       -0.038371358 0.19607146 0.10203346 -0.25752684
0003c0 a9 1f bf 3c 64 8e b2 3d b7 e0 89 bc 40 91 a0 3d
       0.023330526 0.08718565 -0.016830785 0.07840204
0003d0 a1 30 58 3e 79 52 f0 3d 0c c0 64 3e 29 c2 6b be
       0.211123 0.117344804 0.22338885 -0.23023285
0003e0 76 62 8c 3d ee 7b 81 be 3b 82 3e 3b 06 a8 eb 3d
       0.068547174 -0.25289863 0.0029069323 0.11506657
0003f0 7c 94 3d be 72 27 79 be 0e 64 16 be 4f e5 59 3d
       -0.18513674 -0.24331453 -0.14686605 0.0531972

net.0.bias f4 [64]
000000 00 00 00 00 00 00 00 00 00 00 00 00 00 00 00 00
       0.0 0.0 0.0 0.0
000010 00 00 00 00 00 00 00 00 00 00 00 00 00 00 00 00
       0.0 0.0 0.0 0.0
000020 00 00 00 00 00 00 00 00 00 00 00 00 00 00 00 00
       0.0 0.0 0.0 0.0
000030 00 00 00 00 00 00 00 00 00 00 00 00 00 00 00 00
       0.0 0.0 0.0 0.0
000040 00 00 00 00 00 00 00 00 00 00 00 00 00 00 00 00
       0.0 0.0 0.0 0.0
000050 00 00 00 00 00 00 00 00 00 00 00 00 00 00 00 00
       0.0 0.0 0.0 0.0
000060 00 00 00 00 00 00 00 00 00 00 00 00 00 00 00 00
       0.0 0.0 0.0 0.0
000070 00 00 00 00 00 00 00 00 00 00 00 00 00 00 00 00
       0.0 0.0 0.0 0.0
000080 00 00 00 00 00 00 00 00 00 00 00 00 00 00 00 00
       0.0 0.0 0.0 0.0
000090 00 00 00 00 00 00 00 00 00 00 00 00 00 00 00 00
       0.0 0.0 0.0 0.0
0000a0 00 00 00 00 00 00 00 00 00 00 00 00 00 00 00 00
       0.0 0.0 0.0 0.0
0000b0 00 00 00 00 00 00 00 00 00 00 00 00 00 00 00 00
       0.0 0.0 0.0 0.0
0000c0 00 00 00 00 00 00 00 00 00 00 00 00 00 00 00 00
       0.0 0.0 0.0 0.0
0000d0 00 00 00 00 00 00 00 00 00 00 00 00 00 00 00 00
       0.0 0.0 0.0 0.0
0000e0 00 00 00 00 00 00 00 00 00 00 00 00 00 00 00 00
       0.0 0.0 0.0 0.0
0000f0 00 00 00 00 00 00 00 00 00 00 00 00 00 00 00 00
       0.0 0.0 0.0 0.0
