work_dir/algorithmic_trading_FX_deepscalper_deepscalper_adam_mse/checkpoints/checkpoint-00005.pth (torch, 130251 bytes, 36 tensors)

net.0.weight f4 [64, 82]
0	0x3e089ba6	0.13340625
1	0x3e50d63c	0.20394224
2	0x3dcb5c32	0.09929694
3	0xbe836ea5	-0.25670353
4	0xbd6eacb5	-0.058270175
5	0xbe966de4	-0.29380715
6	0x3dd4546e	0.10367666
7	0xbcac4a86	-0.02103163
8	0xbc97e262	-0.018540565
9	0xbe159f84	-0.14611632
10	0xbe85b4cd	-0.26114503
11	0xbe725455	-0.23664983
12	0xbe4d0ef3	-0.20025234
13	0x3e518026	0.20459041
14	0x3e379974	0.17929631
15	0xbd6c2e86	-0.057661556
16	0xbcd182f8	-0.025575146
17	0x3e27e2fe	0.16395184
18	0xbe23966a	-0.15975347
19	0xbc63e683	-0.013909939
20	0xbd556537	-0.05209848
21	0xbe98b892	-0.29828316
22	0x3e500f49	0.20318331
23	0xbdbefc5e	-0.09325479
24	0xbd36f3f1	-0.044666234
25	0xbcb2ada2	-0.02181131
26	0x3d9a9935	0.07548753
27	0xbe68f5f1	-0.22750069
28	0xbdf1cb18	-0.11806315
29	0xbe6bdcb4	-0.2303341
30	0x3e07a5ce	0.13246843
31	0xbe3d9fc9	-0.18517984
32	0x3d99e51a	0.07514401
33	0xbe3e3f48	-0.18578827
34	0xbe1d3a0b	-0.15354173
35	0xbdb6606c	-0.0890511
36	0x3cff2bbc	0.031148784
37	0x3c08c96c	0.008348804
38	0xbdf5c41c	-0.120002955
39	0x3e3444ef	0.17604421
40	0x3de0d1c0	0.10977507
41	0xbe6e26a7	-0.23256932
42	0x3cdf9234	0.027291395
43	0xbda4675f	-0.08027529
44	0x3d4211c9	0.047380242
45	0xbd7f6ca4	-0.062359467
46	0xbd66ca0f	-0.05634504
47	0xbe0cf902	-0.13766864
48	0x3e3a6bf7	0.18205248
49	0x3e83e461	0.25760177
50	0xbe80676b	-0.25078902
51	0xbea023f3	-0.31277427
52	0xbe663a5f	-0.22483204
53	0xbe161c28	-0.14659178
54	0xbe24eaab	-0.16105144
55	0xbe73f6fa	-0.23824683
56	0xbe6f796a	-0.2338616
57	0xbdef4589	-0.11683185
58	0xbe8e9519	-0.27848127
59	0x3d90357a	0.0704145
60	0xbd3d29a7	-0.0461823
61	0xbeb87c2c	-0.36032236
62	0xbbdd5d7b	-0.0067555285
63	0xbea3baa5	-0.31978336
64	0xbea6736d	-0.32509938
65	0xbeb420e8	-0.35181355
66	0xbc383aa6	-0.011244452
67	0xbeb79ad6	-0.35860318
68	0xbe9ef10d	-0.31043282
69	0xbe879561	-0.26481155
70	0xbed07ac2	-0.40718657
71	0xbebbb214	-0.366593
72	0xbd1579c7	-0.03649309
73	0xbf09c4d3	-0.53815955
74	0xbe7597dd	-0.23983712
75	0xbe41b5f8	-0.18917072
76	0xbec77226	-0.38954276
77	0xbeb006be	-0.34380144
78	0xbedfdc28	-0.43722653
79	0xbdac3755	-0.08408991
80	0x3e7ef9a4	0.24899918
81	0x3db3b10b	0.08774003
82	0x3e54258c	0.20717448
83	0xbdd6459c	-0.10462496
84	0x3e4132d7	0.1886705
85	0x3e609a1a	0.21933785
86	0xbc9c072d	-0.01904639
87	0x3e04b07f	0.12957953
88	0xbe291384	-0.16511351
89	0x3db6c231	0.08923758
90	0xbe815866	-0.25262755
91	0xbc02a022	-0.007972749
92	0x3e02f902	0.12790301
93	0xbcc9f28a	-0.024651784
94	0x3d957cfb	0.07299229
95	0xbda48daa	-0.08034833
96	0xbd0c8174	-0.034303144
97	0xbdb4e9ad	-0.088336326
98	0x3e089071	0.1333635
99	0xbde40422	-0.11133601
100	0xbcaf72b7	-0.021417005
101	0xbe6c3eab	-0.23070781
102	0x3e35166d	0.17684336
103	0xbc40b0f3	-0.011760938
104	0x3e114e9b	0.14190142
105	0x3e50c2b6	0.20386776
106	0xbc1e1696	-0.00964894
107	0xbe81aae6	-0.25325698
108	0xbe838448	-0.2568686
109	0xbc9d21eb	-0.019181212
110	0x3dde6a1b	0.10860082
111	0x3e77eb47	0.24210845
112	0x3e39154b	0.18074529
113	0xbe664706	-0.22488031
114	0xbd11095c	-0.035409316
115	0xbe2562ed	-0.16151018
116	0x3bacabe8	0.0052695163
117	0x3de3d27b	0.1112413
118	0xbd783cbe	-0.060604803
119	0x3e26c472	0.16285875
120	0x3cac6b75	0.021047333
121	0x3d2f4802	0.04279328
122	0x3e831310	0.2560048
123	0x3d1dc6e4	0.038519755
124	0x3e04409f	0.12915276
125	0xbced2bd2	-0.02895156
126	0x3e858f93	0.260861
127	0xbe195535	-0.1497391
128	0x3da972e9	0.082738705
129	0xbe686bb1	-0.22697331
130	0xbd18e32e	-0.03732603
131	0xbe42741a	-0.18989602
132	0x3de2d2ca	0.11075361
133	0xbe1f2be9	-0.15544094
134	0xbe41d11c	-0.18927425
135	0x3ca9b80f	0.020717649
136	0xbd571f25	-0.052519936
137	0xbdb7b8fd	-0.089708306
138	0xbe2e35ad	-0.17012663
139	0x3e6cde02	0.23131564
140	0xbd810a73	-0.06300821
141	0xbaaf04b0	-0.0013352837
142	0x3d924c11	0.07143415
143	0x3e16a1ea	0.14710203
144	0xbe84c489	-0.25931194
145	0xbc012afa	-0.007883782
146	0x3e2aecda	0.16691914
147	0x3e1c2ec3	0.15252213
148	0x3e861201	0.2618561
149	0xbbfd113c	-0.0077230018
150	0xbdd033d6	-0.10166137
151	0x3da278a4	0.079331666
152	0x3cd96100	0.026535511
153	0x3e623807	0.22091685
154	0xbe20c0b9	-0.15698518
155	0xbe8073c7	-0.2508833
156	0x3e255de2	0.16149095
157	0x3d391da1	0.045194272
158	0x3e44ed82	0.19231227
159	0xbd6b1fb1	-0.05740327
160	0xbe84c69b	-0.25932774
161	0x3e35ea6f	0.1776521
162	0xbcd440f0	-0.02590987
163	0x3e624b60	0.22099066
164	0xbe9bac11	-0.30404714
165	0xbe7d237a	-0.24720564
166	0xbda03d4f	-0.07824194
167	0xbea42162	-0.3205672
168	0xbe4608f6	-0.19339356
169	0xbe280806	-0.1640931
170	0x3df08cea	0.11745627
171	0x3e015c17	0.12632786
172	0xbe87adaf	-0.26499698
173	0xbe628f01	-0.22124864
174	0xbd417237	-0.047228064
175	0x3cff2f90	0.03115061
176	0x3ce9a075	0.028518895
177	0x3d5a21ff	0.053255077
178	0x3d9605a2	0.07325293
179	0x3c1845e9	0.009294012
180	0x3cee826d	0.029114926
181	0x3e506586	0.20351228
182	0xbd29d9db	-0.04146753
183	0x3ceda166	0.029007625
184	0xbcd7a7a0	-0.026325047
185	0xbe116a61	-0.14200737
186	0x3e1df440	0.15425205
187	0x3d39bc66	0.045345686
188	0xbe7f79e6	-0.24948844
189	0x3e467ea7	0.19384252
190	0x3d59ac4d	0.053142834
191	0xbe323cdf	-0.17406033
192	0xbbd59459	-0.0065179286
193	0xbe70b4b9	-0.2350644
194	0x3d84e68a	0.06489284
195	0x3d51a40e	0.051181845
196	0x3e0012cc	0.1250717
197	0x3e0e9571	0.13924195
198	0xbe5cd060	-0.21563864
199	0x3e3573e3	0.17719989
200	0xbe05c523	-0.13063483
201	0x3e84f83e	0.25970644
202	0xbe75b64e	-0.23995325
203	0x3e13fda3	0.14452223
204	0x3e846398	0.25857234
205	0xbdb0ec59	-0.0863883
206	0xbe042623	-0.12905173
207	0x3e5eafe5	0.21746786
208	0x3e61667b	0.2201175
209	0xbdb8c307	-0.090215735
210	0x3dc09830	0.094040275
211	0xbdb2029b	-0.08691903
212	0x3e266fea	0.1625363
213	0x3e7c4cce	0.24638674
214	0xbdd50bc5	-0.104026355
215	0x3dae8fdc	0.08523533
216	0xbe2b185e	-0.16708514
217	0xbde909cd	-0.113788225
218	0xbe8bb6e2	-0.27287966
219	0xbedc4842	-0.43023878
220	0xbdaf09de	-0.08546804
221	0x3d97ede3	0.0741842
222	0xbca0c933	-0.01962719
223	0xbed793e8	-0.4210503
224	0xbe21da0e	-0.15805838
225	0xbe12e58c	-0.14345378
226	0xbdb5e65f	-0.088818304
227	0xbe84cc2f	-0.2593703
228	0xbd9165f5	-0.07099525
229	0xbdda2a19	-0.10652561
230	0xbedbbe8a	-0.42918807
231	0xbcedcf1d	-0.029029423
232	0xbe264c06	-0.16239938
233	0xbed10886	-0.40826815
234	0xbe7ad803	-0.24496464
235	0xbebab5a0	-0.36466694
236	0xbebe8cef	-0.372169
237	0xbe1f08fe	-0.15530774
238	0xbe80a843	-0.25128374
239	0xbf1d0a03	-0.613434
240	0xbea65f05	-0.3249437
241	0xbe95710a	-0.29187804
242	0xbed3eb92	-0.41390663
243	0xbea3eead	-0.32018033
244	0x3e21336f	0.15742277
245	0xbd45f2f6	-0.04832741
246	0x3e37d195	0.17951043
247	0xbe8c573b	-0.27410302
248	0x3ccacc82	0.02475572
249	0xbe97d285	-0.296528
250	0xbd2665b5	-0.04062434
251	0x3d91cb3e	0.071188435
252	0xbe6a8079	-0.22900571
253	0xbe92ff7d	-0.28710547
254	0xbe431102	-0.19049457
255	0x3c1e5df2	0.009665953

net.0.bias f4 [64]
0	0xbc1b2fbf	-0.009471833
1	0x00000000	0.0
2	0xbd5ba6aa	-0.05362574
3	0xbd5325eb	-0.051549833
4	0x00000000	0.0
5	0x00000000	0.0
6	0x3b81c4c0	0.003960222
7	0x00000000	0.0
8	0x00000000	0.0
9	0x00000000	0.0
10	0x00000000	0.0
11	0xbd4a85a2	-0.04944385
12	0x00000000	0.0
13	0x3c8d2dcb	0.01723375
14	0x00000000	0.0
15	0x00000000	0.0
16	0xbd9b379c	-0.07578966
17	0xbd201219	-0.03907976
18	0x3c1af5c5	0.00945801
19	0x00000000	0.0
20	0x00000000	0.0
21	0xbc8e5173	-0.017372822
22	0xbd2e821e	-0.04260456
23	0xbde94c75	-0.11391536
24	0xbb35a3a0	-0.0027715936
25	0xbd04ca56	-0.032419525
26	0xbc5eaf9e	-0.013591675
27	0x00000000	0.0
28	0xbdbf9b9d	-0.09355853
29	0x3c03e828	0.008050956
30	0xbc34eb2e	-0.011042399
31	0x00000000	0.0
32	0x00000000	0.0
33	0x00000000	0.0
34	0x00000000	0.0
35	0xbd5779a6	-0.052606247
36	0x00000000	0.0
37	0x00000000	0.0
38	0x00000000	0.0
39	0x00000000	0.0
40	0x00000000	0.0
41	0xbd699cea	-0.05703441
42	0x00000000	0.0
43	0xbbb6d24b	-0.005579268
44	0x00000000	0.0
45	0x00000000	0.0
46	0x00000000	0.0
47	0x3c94cd6e	0.018164363
48	0x00000000	0.0
49	0xbcea3fba	-0.02859484
50	0xbd696d5b	-0.056989055
51	0xbd9473c6	-0.072486445
52	0xbcca39dd	-0.024685794
53	0x00000000	0.0
54	0x00000000	0.0
55	0x00000000	0.0
56	0x00000000	0.0
57	0xbd36ecdf	-0.04465949
58	0xbc947106	-0.0181203
59	0xbc224f4c	-0.009906601
60	0x00000000	0.0
61	0x00000000	0.0
62	0x00000000	0.0
63	0xbd164924	-0.036690846

net.2.weight f4 [32, 64]
0	0x3d96f4a1	0.07370878
1	0x3e502530	0.20326686
2	0xbd717bbd	-0.058955897
3	0x3e80f9d7	0.25190613
4	0x3d9faa24	0.077961236
5	0x3e0a1ff0	0.13488746
6	0xbd7c14dd	-0.061543334
7	0x3da4b36f	0.08042037
8	0xbd0e577e	-0.034751408
9	0xbdd561e7	-0.10419064
10	0xbe091ff9	-0.13391103
11	0xbe62e272	-0.22156695
12	0xbe3854d2	-0.18001106
13	0xbe2e49f7	-0.17020403
14	0x3d8bb899	0.068223186
15	0xbe65d2d0	-0.224437
16	0xbe8f5e59	-0.2800167
17	0x3db52f6b	0.08846935
18	0xbe35d227	-0.17755948
19	0xbdc37a24	-0.09544781
20	0x3d751937	0.0598385
21	0x3e4f7403	0.20259099
22	0xbc723a22	-0.014784368
23	0xbe95ff5d	-0.2929639
24	0xbe6f6832	-0.23379591
25	0xbe9dba79	-0.3080633
26	0xbe8a7933	-0.27045593
27	0x3e95135a	0.29116327
28	0x3e16d3eb	0.14729278
29	0x3e3ea705	0.186184
30	0x3cc018bb	0.023449292
31	0xbde8e971	-0.113726504
32	0xbd4d6f46	-0.050154947
33	0xbe1cf075	-0.15326102
34	0xbe104603	-0.14089207
35	0x3e6752dc	0.22590202
36	0xbe83d9e0	-0.25752163
37	0x3dd24951	0.1026789
38	0xbc7291a1	-0.014805228
39	0xbd9a4681	-0.07532979
40	0xbe976532	-0.29569393
41	0xbe8e564a	-0.27800208
42	0x3d9ae951	0.07564033
43	0xbe06ad41	-0.13152029
44	0x3dbb6d73	0.09151735
45	0x3d2ff2b6	0.042956077
46	0xbe437897	-0.1908897
47	0x3e0060ce	0.12536928
48	0x3e83f105	0.2576982
49	0xbe95c60f	-0.2925267
50	0x3d8ef4ae	0.06980263
51	0x3ca52d8b	0.020163318
52	0xbe9e554a	-0.30924445
53	0x3c0ececa	0.008716295
54	0x3e58a082	0.21154979
55	0x3e5a7e68	0.21337283
56	0x3e2ee288	0.17078602
57	0x3e784dd5	0.2424844
58	0xbdff4727	-0.12464743
59	0x3ddf07ac	0.10890135
60	0xbe879fcb	-0.264891
61	0x3d806bec	0.062705845
62	0xbe8397dc	-0.25701797
63	0xbd9c8de8	-0.07644254
64	0x3da72b1c	0.08162519
65	0x3d95dbd5	0.0731732
66	0x3e772225	0.24134119
67	0xbe7cbf81	-0.24682428
68	0xbd67b4e2	-0.056568988
69	0x3e876a38	0.26448226
70	0xbe677130	-0.22601771
71	0x3e5deb6b	0.21671836
72	0x3e60d438	0.21955955
73	0x3ddd679b	0.10810777
74	0x3e57c5e6	0.21071586
75	0x3e1bb53a	0.15205851
76	0x3e823e9e	0.25438398
77	0x3e2b9215	0.16754945
78	0xbd864ba9	-0.065574
79	0x3d9876ab	0.07444509
80	0xbd15d3ea	-0.03657905
81	0x3b8b55ae	0.004252157
82	0xbd9dc32c	-0.07703242
83	0xbe9c4bba	-0.30526525
84	0x3df4b018	0.1194765
85	0x3e45ddc2	0.19322875
86	0xbe1233f8	-0.14277637
87	0xbe4bc4f9	-0.19899358
88	0xbe892dae	-0.26792663
89	0x3e6dfebe	0.23241708
90	0x3b494bf2	0.0030715433
91	0xbe03da95	-0.12876351
92	0x3de12a17	0.10994356
93	0xbe2adf28	-0.1668669
94	0x3e99e443	0.30056962
95	0x3c8b0490	0.016969949
96	0xbe8c71c5	-0.2743055
97	0xbd44c41d	-0.04803859
98	0x3d91f329	0.07126457
99	0xbde5728d	-0.112034895
100	0xbd360097	-0.044434156
101	0x3e46748e	0.193804
102	0xbe1b351c	-0.15156978
103	0x3d221962	0.03957499
104	0x3d9bd0ed	0.07608209
105	0x3e572b1b	0.21012537
106	0xbe8d363a	-0.27580434
107	0xbe5abbf4	-0.21360761
108	0xbe341a9d	-0.17588277
109	0x3e9165f2	0.2839809
110	0x3d884c1f	0.06655144
111	0xbe25e347	-0.1619998
112	0xbe97aa34	-0.29622042
113	0x3e939c98	0.2883041
114	0xbdb05647	-0.08610206
115	0x3da38197	0.07983702
116	0xbd6e2ed9	-0.058150146
117	0xbd3f8bfe	-0.046764366
118	0x3d09bc85	0.03362705
119	0xbe8b0666	-0.2715332
120	0xbe939ef1	-0.288322
121	0x3e95567d	0.29167548
122	0x3e526d7f	0.20549582
123	0x3e834218	0.25636363
124	0x3e06e473	0.13173084
125	0xbd883c02	-0.066520706
126	0xbe814450	-0.2524743
127	0xbd468518	-0.04846677
128	0x3d14c9c2	0.036325224
129	0xbe279471	-0.1636522
130	0xbc758eca	-0.014987657
131	0xbe51c2ea	-0.2048451
132	0xbe0b73a1	-0.13618328
133	0x3e013a86	0.12619981
134	0x3c073f3c	0.008254822
135	0x3e8e9119	0.27845076
136	0x3db842dc	0.089971274
137	0x3e12f6c2	0.14351943
138	0x3e966e33	0.2938095
139	0x3e912d78	0.28355002
140	0xbcfc9bd5	-0.030836025
141	0x3ddff640	0.1093564
142	0x3e4e4c06	0.20146188
143	0x3da7bd03	0.08190348
144	0x3cf9192d	0.030407513
145	0xbd81b405	-0.06333164
146	0xbe611dc2	-0.21984008
147	0xbe912752	-0.28350312
148	0xbdbf1716	-0.09330575
149	0x3e90b8e6	0.28266066
150	0xbe2f0e7f	-0.17095374
151	0x3e0bde9d	0.13659139
152	0xbe65cd48	-0.2244159
153	0xbdf92e35	-0.121670164
154	0x3cb5cdd6	0.022192877
155	0x3ba74d06	0.0051056175
156	0xbe97033e	-0.2949466
157	0xbe0ccb0c	-0.13749331
158	0xbe679df3	-0.22618847
159	0x3e3d1297	0.18464123
160	0x3e0c0c5a	0.13676587
161	0x3dc9f696	0.09861486
162	0x3e3a29c3	0.18179993
163	0x3e524185	0.20532806
164	0xbc8b47b1	-0.017001959
165	0x3dd2380a	0.10264595
166	0xbe4cb7eb	-0.19992034
167	0x3dc98d91	0.09841455
168	0x3e2379c6	0.15964422
169	0x3e8380f5	0.25684324
170	0xbe2a3f9f	-0.16625832
171	0xbdda474b	-0.10658129
172	0xbe968c1a	-0.29403764
173	0xbe30b0a7	-0.17254888
174	0xbde1acbb	-0.11019274
175	0xbe0d24f3	-0.13783626
176	0xbe3555fa	-0.17708579
177	0xbe033444	-0.12812907
178	0xba4d95bd	-0.0007842442
179	0x3e4b3560	0.1984458
180	0x3e8622c9	0.26198414
181	0xbe1a9e61	-0.1509948
182	0x3e4bf8c0	0.1991911
183	0x3e0080e8	0.12549174
184	0x3e8de7ca	0.27715904
185	0xbd123727	-0.03569713
186	0xbce0f868	-0.0274622
187	0xbcdf5761	-0.027263345
188	0xbd58e203	-0.052949917
189	0x3e9be1ab	0.30445608
190	0x3dc777fb	0.09739681
191	0xbd5cbc1f	-0.053890344
192	0xbe958144	-0.29200184
193	0xbe8ee255	-0.27907053
194	0xbe4479f3	-0.19187145
195	0xbdeb75ed	-0.11497102
196	0x3d59a521	0.053135995
197	0x3d019a92	0.03164155
198	0x3cf78e1f	0.030219136
199	0xbdb1b6bd	-0.08677433
200	0xbe84f15d	-0.25965396
201	0xbd4c4b49	-0.049876485
202	0xbccd89e0	-0.025090158
203	0xbdeb1c8a	-0.11480053
204	0xbe446655	-0.19179662
205	0xbd34995b	-0.044091564
206	0x3c6a7f06	0.014312511
207	0xbcbf0ad2	-0.02332059
208	0x3e81d6c6	0.25359172
209	0x3e3c5095	0.18390115
210	0x3e7fce05	0.24980934
211	0x3e275326	0.16340312
212	0xbe967ff5	-0.29394498
213	0xbe7d259e	-0.24721381
214	0xbe115e1d	-0.14196058
215	0x3e6c9e75	0.23107322
216	0x3e5ed24b	0.21759908
217	0xbe73ba47	-0.23801528
218	0xbe60b260	-0.21943045
219	0x3e8f06d2	0.2793489
220	0x3db599ff	0.08867263
221	0xbe10a77e	-0.14126393
222	0xbd4e5f70	-0.050383985
223	0xbe1e8258	-0.1547941
224	0x3e9610b9	0.29309633
225	0xbcc42fa7	-0.023948504
226	0xbc3d36a9	-0.0115486765
227	0xbe009681	-0.12557413
228	0x3e745614	0.23860961
229	0x3e86a05a	0.26294214
230	0x3e814fca	0.25256187
231	0xbdbeef5c	-0.09322998
232	0xbe167e6b	-0.14696662
233	0xbe99545f	-0.29947183
234	0x3e5d8fe1	0.21636917
235	0xbe50c769	-0.20388569
236	0x3dbcd29d	0.09219859
237	0x3e89efc9	0.26940754
238	0xbe2f24b0	-0.17103839
239	0x3d281613	0.041036677
240	0xbe00d00e	-0.12579367
241	0xbe8c1377	-0.273586
242	0xbb496d6f	-0.0030735394
243	0xbe026bdb	-0.12736456
244	0x3e4c7d8f	0.19969772
245	0xbe1c3d19	-0.15257682
246	0x3e6a6722	0.22890905
247	0x3e472c4b	0.1945049
248	0x3e3aaac1	0.182292
249	0xbdb00e19	-0.08596439
250	0xbe6d6ead	-0.2318675
251	0xbde8686d	-0.11348043
252	0x3e451286	0.19245347
253	0xbd99b07e	-0.07504366
254	0x3e96609f	0.2937059
255	0x3e7df8bb	0.24801914

net.2.bias f4 [32]
0	0xbd0c9602	-0.034322746
1	0xbb9d983d	-0.004809408
2	0x00000000	0.0
3	0x00000000	0.0
4	0x3bbd0234	0.005768085
5	0x00000000	0.0
6	0x00000000	0.0
7	0x00000000	0.0
8	0xbca319a9	-0.019909697
9	0xbd1fe90c	-0.03904061
10	0x00000000	0.0
11	0x00000000	0.0
12	0x00000000	0.0
13	0x00000000	0.0
14	0x00000000	0.0
15	0x3d08bd20	0.03338349
16	0x3d3ce4b0	0.04611653
17	0xbcbe05dd	-0.023196155
18	0x00000000	0.0
19	0xbc34d3e7	-0.01103685
20	0x00000000	0.0
21	0x00000000	0.0
22	0x00000000	0.0
23	0x3d400f6d	0.04688971
24	0x00000000	0.0
25	0xbcd3b3ff	-0.025842665
26	0x00000000	0.0
27	0xbd06a64d	-0.03287344
28	0xbcc0385b	-0.023464372
29	0xbba86bf0	-0.0051398203
30	0x3be649f8	0.0070278607
31	0x00000000	0.0

net.4.weight f4 [3, 32]
0	0xbebc42ca	-0.36769706
1	0x3e0512a1	0.12995388
2	0x3b7b370c	0.003833237
3	0xbe8626a6	-0.2620136
4	0x3d723df2	0.059141107
5	0xbe06e4ca	-0.13173214
6	0xbec80586	-0.39066714
7	0x3eb80746	0.3594305
8	0xbec6d3c6	-0.38833445
9	0x3e28f02e	0.16497871
10	0x3cbfa7cd	0.023395443
11	0xbd95ed38	-0.073206365
12	0x3edd313a	0.4320162
13	0x3edbee10	0.42955065
14	0x3e9285f3	0.2861782
15	0xbea9140b	-0.33023104
16	0x3ec5fe50	0.38670588
17	0xbe49449b	-0.19655077
18	0x3c6352f5	0.013874759
19	0x3e0bc62f	0.1364982
20	0x3ceea3b4	0.029130794
21	0x3e2f2cb4	0.17106897
22	0x3de3c97f	0.11122417
23	0x3ead0d24	0.33799088
24	0x3e7b672a	0.24551073
25	0xbe10dcde	-0.14146754
26	0x3d9ca7e7	0.07649212
27	0x3d8a8a04	0.06764606
28	0x3eb15878	0.3463781
29	0xbebbba38	-0.3666551
30	0x3e0947c2	0.1340628
31	0x3eae9d84	0.3410455
32	0xbe4570a4	-0.1928125
33	0x3e6bd3ca	0.2303001
34	0x3e19c5ce	0.15016863
35	0x3ddb6edf	0.10714506
36	0xbe31c5b7	-0.17360578
37	0x3ec58c3b	0.3858355
38	0x3e6e286b	0.23257606
39	0xbec3ae58	-0.3821895
40	0xbe3af674	-0.18258077
41	0x3e4c0aa1	0.1992593
42	0xbdd17758	-0.10227841
43	0x3ec8a903	0.39191446
44	0xbd1c3458	-0.038135856
45	0xbe379a7c	-0.17930025
46	0xbe667123	-0.22504096
47	0x3e889387	0.26675054
48	0x3df1ff31	0.11816252
49	0x3d01f0d4	0.031723812
50	0x3ed66764	0.41875756
51	0xbe9b05b8	-0.302778
52	0x3d9993a8	0.07498866
53	0xbeaa4441	-0.332552
54	0xbe3283e0	-0.17433119
55	0x3db52068	0.088440716
56	0x3ea72756	0.32647198
57	0x3e5ef2db	0.2177233
58	0x3e7c3ef4	0.2463339
59	0xbc5553c7	-0.013020462
60	0x3e51c65e	0.20485827
61	0x3e9ea24c	0.30983198
62	0xbd023056	-0.031784378
63	0xbeac77f0	-0.33685255
64	0x3d9057e5	0.070480146
65	0xba7658cf	-0.0009397389
66	0x3eda6fb1	0.4266334
67	0x3eb3a87a	0.35089475
68	0x3dcf9c0a	0.10137184
69	0xbe936bb2	-0.28793103
70	0x3ccd9cb3	0.025099134
71	0xbe099474	-0.13435537
72	0xbec70e08	-0.38877892
73	0xbdc03d77	-0.093867235
74	0x3d56b224	0.052415982
75	0xbe0ee8a2	-0.1395593
76	0xbe9797ba	-0.29607946
77	0x3ebde46f	0.37088344
78	0xbea166fe	-0.3152389
79	0x3e8e17ba	0.27752477
80	0x3dc3da70	0.09563148
81	0xbec2603e	-0.37964052
82	0x3eb09a84	0.34492886
83	0x3dd9e1c1	0.10638762
84	0xbea0a63f	-0.31376836
85	0xbe1ea07c	-0.15490907
86	0xbd39c297	-0.04535159
87	0x3de050b7	0.10952895
88	0x3eb7a496	0.35867757
89	0xbebf1c52	-0.37326294
90	0xbbd62f19	-0.006536376
91	0xbe772165	-0.24133833
92	0xbece89ac	-0.4033941
93	0xbed23e97	-0.41063377
94	0x3a48cff4	0.0007660382
95	0xbeb39a0d	-0.3507847

net.4.bias f4 [3]
0	0x3d2e9e44	0.042631403
1	0x3d0a7f02	0.03381253
2	0x3da20bc3	0.079123996

net.0.weight f4 [64, 82]
0	0x3e089ba6	0.13340625
1	0x3e50d63c	0.20394224
2	0x3dcb5c32	0.09929694
3	0xbe836ea5	-0.25670353
4	0xbd6eacb5	-0.058270175
5	0xbe966de4	-0.29380715
6	0x3dd4546e	0.10367666
7	0xbcac4a86	-0.02103163
8	0xbc97e262	-0.018540565
9	0xbe159f84	-0.14611632
10	0xbe85b4cd	-0.26114503
11	0xbe725455	-0.23664983
12	0xbe4d0ef3	-0.20025234
13	0x3e518026	0.20459041
14	0x3e379974	0.17929631
15	0xbd6c2e86	-0.057661556
16	0xbcd182f8	-0.025575146
17	0x3e27e2fe	0.16395184
18	0xbe23966a	-0.15975347
19	0xbc63e683	-0.013909939
20	0xbd556537	-0.05209848
21	0xbe98b892	-0.29828316
22	0x3e500f49	0.20318331
23	0xbdbefc5e	-0.09325479
24	0xbd36f3f1	-0.044666234
25	0xbcb2ada2	-0.02181131
26	0x3d9a9935	0.07548753
27	0xbe68f5f1	-0.22750069
28	0xbdf1cb18	-0.11806315
29	0xbe6bdcb4	-0.2303341
30	0x3e07a5ce	0.13246843
31	0xbe3d9fc9	-0.18517984
32	0x3d99e51a	0.07514401
33	0xbe3e3f48	-0.18578827
34	0xbe1d3a0b	-0.15354173
35	0xbdb6606c	-0.0890511
36	0x3cff2bbc	0.031148784
37	0x3c08c96c	0.008348804
38	0xbdf5c41c	-0.120002955
39	0x3e3444ef	0.17604421
40	0x3de0d1c0	0.10977507
41	0xbe6e26a7	-0.23256932
42	0x3cdf9234	0.027291395
43	0xbda4675f	-0.08027529
44	0x3d4211c9	0.047380242
45	0xbd7f6ca4	-0.062359467
46	0xbd66ca0f	-0.05634504
47	0xbe0cf902	-0.13766864
48	0x3e3a6bf7	0.18205248
49	0x3e83e461	0.25760177
50	0xbe80676b	-0.25078902
51	0xbea023f3	-0.31277427
52	0xbe663a5f	-0.22483204
53	0xbe161c28	-0.14659178
54	0xbe24eaab	-0.16105144
55	0xbe73f6fa	-0.23824683
56	0xbe6f796a	-0.2338616
57	0xbdef4589	-0.11683185
58	0xbe8e9519	-0.27848127
59	0x3d90357a	0.0704145
60	0xbd3d29a7	-0.0461823
61	0xbeb87c2c	-0.36032236
62	0xbbdd5d7b	-0.0067555285
63	0xbea3baa5	-0.31978336
64	0xbea6736d	-0.32509938
65	0xbeb420e8	-0.35181355
66	0xbc383aa6	-0.011244452
67	0xbeb79ad6	-0.35860318
68	0xbe9ef10d	-0.31043282
69	0xbe879561	-0.26481155
70	0xbed07ac2	-0.40718657
71	0xbebbb214	-0.366593
72	0xbd1579c7	-0.03649309
73	0xbf09c4d3	-0.53815955
74	0xbe7597dd	-0.23983712
75	0xbe41b5f8	-0.18917072
76	0xbec77226	-0.38954276
77	0xbeb006be	-0.34380144
78	0xbedfdc28	-0.43722653
79	0xbdac3755	-0.08408991
80	0x3e7ef9a4	0.24899918
81	0x3db3b10b	0.08774003
82	0x3e54258c	0.20717448
83	0xbdd6459c	-0.10462496
84	0x3e4132d7	0.1886705
85	0x3e609a1a	0.21933785
86	0xbc9c072d	-0.01904639
87	0x3e04b07f	0.12957953
88	0xbe291384	-0.16511351
89	0x3db6c231	0.08923758
90	0xbe815866	-0.25262755
91	0xbc02a022	-0.007972749
92	0x3e02f902	0.12790301
93	0xbcc9f28a	-0.024651784
94	0x3d957cfb	0.07299229
95	0xbda48daa	-0.08034833
96	0xbd0c8174	-0.034303144
97	0xbdb4e9ad	-0.088336326
98	0x3e089071	0.1333635
99	0xbde40422	-0.11133601
100	0xbcaf72b7	-0.021417005
101	0xbe6c3eab	-0.23070781
102	0x3e35166d	0.17684336
103	0xbc40b0f3	-0.011760938
104	0x3e114e9b	0.14190142
105	0x3e50c2b6	0.20386776
106	0xbc1e1696	-0.00964894
107	0xbe81aae6	-0.25325698
108	0xbe838448	-0.2568686
109	0xbc9d21eb	-0.019181212
110	0x3dde6a1b	0.10860082
111	0x3e77eb47	0.24210845
112	0x3e39154b	0.18074529
113	0xbe664706	-0.22488031
114	0xbd11095c	-0.035409316
115	0xbe2562ed	-0.16151018
116	0x3bacabe8	0.0052695163
117	0x3de3d27b	0.1112413
118	0xbd783cbe	-0.060604803
119	0x3e26c472	0.16285875
120	0x3cac6b75	0.021047333
121	0x3d2f4802	0.04279328
122	0x3e831310	0.2560048
123	0x3d1dc6e4	0.038519755
124	0x3e04409f	0.12915276
125	0xbced2bd2	-0.02895156
126	0x3e858f93	0.260861
127	0xbe195535	-0.1497391
128	0x3da972e9	0.082738705
129	0xbe686bb1	-0.22697331
130	0xbd18e32e	-0.03732603
131	0xbe42741a	-0.18989602
132	0x3de2d2ca	0.11075361
133	0xbe1f2be9	-0.15544094
134	0xbe41d11c	-0.18927425
135	0x3ca9b80f	0.020717649
136	0xbd571f25	-0.052519936
137	0xbdb7b8fd	-0.089708306
138	0xbe2e35ad	-0.17012663
139	0x3e6cde02	0.23131564
140	0xbd810a73	-0.06300821
141	0xbaaf04b0	-0.0013352837
142	0x3d924c11	0.07143415
143	0x3e16a1ea	0.14710203
144	0xbe84c489	-0.25931194
145	0xbc012afa	-0.007883782
146	0x3e2aecda	0.16691914
147	0x3e1c2ec3	0.15252213
148	0x3e861201	0.2618561
149	0xbbfd113c	-0.0077230018
150	0xbdd033d6	-0.10166137
151	0x3da278a4	0.079331666
152	0x3cd96100	0.026535511
153	0x3e623807	0.22091685
154	0xbe20c0b9	-0.15698518
155	0xbe8073c7	-0.2508833
156	0x3e255de2	0.16149095
157	0x3d391da1	0.045194272
158	0x3e44ed82	0.19231227
159	0xbd6b1fb1	-0.05740327
160	0xbe84c69b	-0.25932774
161	0x3e35ea6f	0.1776521
162	0xbcd440f0	-0.02590987
163	0x3e624b60	0.22099066
164	0xbe9bac11	-0.30404714
165	0xbe7d237a	-0.24720564
166	0xbda03d4f	-0.07824194
167	0xbea42162	-0.3205672
168	0xbe4608f6	-0.19339356
169	0xbe280806	-0.1640931
170	0x3df08cea	0.11745627
171	0x3e015c17	0.12632786
172	0xbe87adaf	-0.26499698
173	0xbe628f01	-0.22124864
174	0xbd417237	-0.047228064
175	0x3cff2f90	0.03115061
176	0x3ce9a075	0.028518895
177	0x3d5a21ff	0.053255077
178	0x3d9605a2	0.07325293
179	0x3c1845e9	0.009294012
180	0x3cee826d	0.029114926
181	0x3e506586	0.20351228
182	0xbd29d9db	-0.04146753
183	0x3ceda166	0.029007625
184	0xbcd7a7a0	-0.026325047
185	0xbe116a61	-0.14200737
186	0x3e1df440	0.15425205
187	0x3d39bc66	0.045345686
188	0xbe7f79e6	-0.24948844
189	0x3e467ea7	0.19384252
190	0x3d59ac4d	0.053142834
191	0xbe323cdf	-0.17406033
192	0xbbd59459	-0.0065179286
193	0xbe70b4b9	-0.2350644
194	0x3d84e68a	0.06489284
195	0x3d51a40e	0.051181845
196	0x3e0012cc	0.1250717
197	0x3e0e9571	0.13924195
198	0xbe5cd060	-0.21563864
199	0x3e3573e3	0.17719989
200	0xbe05c523	-0.13063483
201	0x3e84f83e	0.25970644
202	0xbe75b64e	-0.23995325
203	0x3e13fda3	0.14452223
204	0x3e846398	0.25857234
205	0xbdb0ec59	-0.0863883
206	0xbe042623	-0.12905173
207	0x3e5eafe5	0.21746786
208	0x3e61667b	0.2201175
209	0xbdb8c307	-0.090215735
210	0x3dc09830	0.094040275
211	0xbdb2029b	-0.08691903
212	0x3e266fea	0.1625363
213	0x3e7c4cce	0.24638674
214	0xbdd50bc5	-0.104026355
215	0x3dae8fdc	0.08523533
216	0xbe2b185e	-0.16708514
217	0xbde909cd	-0.113788225
218	0xbe8bb6e2	-0.27287966
219	0xbedc4842	-0.43023878
220	0xbdaf09de	-0.08546804
221	0x3d97ede3	0.0741842
222	0xbca0c933	-0.01962719
223	0xbed793e8	-0.4210503
224	0xbe21da0e	-0.15805838
225	0xbe12e58c	-0.14345378
226	0xbdb5e65f	-0.088818304
227	0xbe84cc2f	-0.2593703
228	0xbd9165f5	-0.07099525
229	0xbdda2a19	-0.10652561
230	0xbedbbe8a	-0.42918807
231	0xbcedcf1d	-0.029029423
232	0xbe264c06	-0.16239938
233	0xbed10886	-0.40826815
234	0xbe7ad803	-0.24496464
235	0xbebab5a0	-0.36466694
236	0xbebe8cef	-0.372169
237	0xbe1f08fe	-0.15530774
238	0xbe80a843	-0.25128374
239	0xbf1d0a03	-0.613434
240	0xbea65f05	-0.3249437
241	0xbe95710a	-0.29187804
242	0xbed3eb92	-0.41390663
243	0xbea3eead	-0.32018033
244	0x3e21336f	0.15742277
245	0xbd45f2f6	-0.04832741
246	0x3e37d195	0.17951043
247	0xbe8c573b	-0.27410302
248	0x3ccacc82	0.02475572
249	0xbe97d285	-0.296528
250	0xbd2665b5	-0.04062434
251	0x3d91cb3e	0.071188435
252	0xbe6a8079	-0.22900571
253	0xbe92ff7d	-0.28710547
254	0xbe431102	-0.19049457
255	0x3c1e5df2	0.009665953

net.0.bias f4 [64]
0	0xbc1b2fbf	-0.009471833
1	0x00000000	0.0
2	0xbd5ba6aa	-0.05362574
3	0xbd5325eb	-0.051549833
4	0x00000000	0.0
5	0x00000000	0.0
6	0x3b81c4c0	0.003960222
7	0x00000000	0.0
8	0x00000000	0.0
9	0x00000000	0.0
10	0x00000000	0.0
11	0xbd4a85a2	-0.04944385
12	0x00000000	0.0
13	0x3c8d2dcb	0.01723375
14	0x00000000	0.0
15	0x00000000	0.0
16	0xbd9b379c	-0.07578966
17	0xbd201219	-0.03907976
18	0x3c1af5c5	0.00945801
19	0x00000000	0.0
20	0x00000000	0.0
21	0xbc8e5173	-0.017372822
22	0xbd2e821e	-0.04260456
23	0xbde94c75	-0.11391536
24	0xbb35a3a0	-0.0027715936
25	0xbd04ca56	-0.032419525
26	0xbc5eaf9e	-0.013591675
27	0x00000000	0.0
28	0xbdbf9b9d	-0.09355853
29	0x3c03e828	0.008050956
30	0xbc34eb2e	-0.011042399
31	0x00000000	0.0
32	0x00000000	0.0
33	0x00000000	0.0
34	0x00000000	0.0
35	0xbd5779a6	-0.052606247
36	0x00000000	0.0
37	0x00000000	0.0
38	0x00000000	0.0
39	0x00000000	0.0
40	0x00000000	0.0
41	0xbd699cea	-0.05703441
42	0x00000000	0.0
43	0xbbb6d24b	-0.005579268
44	0x00000000	0.0
45	0x00000000	0.0
46	0x00000000	0.0
47	0x3c94cd6e	0.018164363
48	0x00000000	0.0
49	0xbcea3fba	-0.02859484
50	0xbd696d5b	-0.056989055
51	0xbd9473c6	-0.072486445
52	0xbcca39dd	-0.024685794
53	0x00000000	0.0
54	0x00000000	0.0
55	0x00000000	0.0
56	0x00000000	0.0
57	0xbd36ecdf	-0.04465949
58	0xbc947106	-0.0181203
59	0xbc224f4c	-0.009906601
60	0x00000000	0.0
61	0x00000000	0.0
62	0x00000000	0.0
63	0xbd164924	-0.036690846

net.2.weight f4 [32, 64]
0	0x3d96f4a1	0.07370878
1	0x3e502530	0.20326686
2	0xbd717bbd	-0.058955897
3	0x3e80f9d7	0.25190613
4	0x3d9faa24	0.077961236
5	0x3e0a1ff0	0.13488746
6	0xbd7c14dd	-0.061543334
7	0x3da4b36f	0.08042037
8	0xbd0e577e	-0.034751408
9	0xbdd561e7	-0.10419064
10	0xbe091ff9	-0.13391103
11	0xbe62e272	-0.22156695
12	0xbe3854d2	-0.18001106
13	0xbe2e49f7	-0.17020403
14	0x3d8bb899	0.068223186
15	0xbe65d2d0	-0.224437
16	0xbe8f5e59	-0.2800167
17	0x3db52f6b	0.08846935
18	0xbe35d227	-0.17755948
19	0xbdc37a24	-0.09544781
20	0x3d751937	0.0598385
21	0x3e4f7403	0.20259099
22	0xbc723a22	-0.014784368
23	0xbe95ff5d	-0.2929639
24	0xbe6f6832	-0.23379591
25	0xbe9dba79	-0.3080633
26	0xbe8a7933	-0.27045593
27	0x3e95135a	0.29116327
28	0x3e16d3eb	0.14729278
29	0x3e3ea705	0.186184
30	0x3cc018bb	0.023449292
31	0xbde8e971	-0.113726504
32	0xbd4d6f46	-0.050154947
33	0xbe1cf075	-0.15326102
34	0xbe104603	-0.14089207
35	0x3e6752dc	0.22590202
36	0xbe83d9e0	-0.25752163
37	0x3dd24951	0.1026789
38	0xbc7291a1	-0.014805228
39	0xbd9a4681	-0.07532979
40	0xbe976532	-0.29569393
41	0xbe8e564a	-0.27800208
42	0x3d9ae951	0.07564033
43	0xbe06ad41	-0.13152029
44	0x3dbb6d73	0.09151735
45	0x3d2ff2b6	0.042956077
46	0xbe437897	-0.1908897
47	0x3e0060ce	0.12536928
48	0x3e83f105	0.2576982
49	0xbe95c60f	-0.2925267
50	0x3d8ef4ae	0.06980263
51	0x3ca52d8b	0.020163318
52	0xbe9e554a	-0.30924445
53	0x3c0ececa	0.008716295
54	0x3e58a082	0.21154979
55	0x3e5a7e68	0.21337283
56	0x3e2ee288	0.17078602
57	0x3e784dd5	0.2424844
58	0xbdff4727	-0.12464743
59	0x3ddf07ac	0.10890135
60	0xbe879fcb	-0.264891
61	0x3d806bec	0.062705845
62	0xbe8397dc	-0.25701797
63	0xbd9c8de8	-0.07644254
64	0x3da72b1c	0.08162519
65	0x3d95dbd5	0.0731732
66	0x3e772225	0.24134119
67	0xbe7cbf81	-0.24682428
68	0xbd67b4e2	-0.056568988
69	0x3e876a38	0.26448226
70	0xbe677130	-0.22601771
71	0x3e5deb6b	0.21671836
72	0x3e60d438	0.21955955
73	0x3ddd679b	0.10810777
74	0x3e57c5e6	0.21071586
75	0x3e1bb53a	0.15205851
76	0x3e823e9e	0.25438398
77	0x3e2b9215	0.16754945
78	0xbd864ba9	-0.065574
79	0x3d9876ab	0.07444509
80	0xbd15d3ea	-0.03657905
81	0x3b8b55ae	0.004252157
82	0xbd9dc32c	-0.07703242
83	0xbe9c4bba	-0.30526525
84	0x3df4b018	0.1194765
85	0x3e45ddc2	0.19322875
86	0xbe1233f8	-0.14277637
87	0xbe4bc4f9	-0.19899358
88	0xbe892dae	-0.26792663
89	0x3e6dfebe	0.23241708
90	0x3b494bf2	0.0030715433
91	0xbe03da95	-0.12876351
92	0x3de12a17	0.10994356
93	0xbe2adf28	-0.1668669
94	0x3e99e443	0.30056962
95	0x3c8b0490	0.016969949
96	0xbe8c71c5	-0.2743055
97	0xbd44c41d	-0.04803859
98	0x3d91f329	0.07126457
99	0xbde5728d	-0.112034895
100	0xbd360097	-0.044434156
101	0x3e46748e	0.193804
102	0xbe1b351c	-0.15156978
103	0x3d221962	0.03957499
104	0x3d9bd0ed	0.07608209
105	0x3e572b1b	0.21012537
106	0xbe8d363a	-0.27580434
107	0xbe5abbf4	-0.21360761
108	0xbe341a9d	-0.17588277
109	0x3e9165f2	0.2839809
110	0x3d884c1f	0.06655144
111	0xbe25e347	-0.1619998
112	0xbe97aa34	-0.29622042
113	0x3e939c98	0.2883041
114	0xbdb05647	-0.08610206
115	0x3da38197	0.07983702
116	0xbd6e2ed9	-0.058150146
117	0xbd3f8bfe	-0.046764366
118	0x3d09bc85	0.03362705
119	0xbe8b0666	-0.2715332
120	0xbe939ef1	-0.288322
121	0x3e95567d	0.29167548
122	0x3e526d7f	0.20549582
123	0x3e834218	0.25636363
124	0x3e06e473	0.13173084
125	0xbd883c02	-0.066520706
126	0xbe814450	-0.2524743
127	0xbd468518	-0.04846677
128	0x3d14c9c2	0.036325224
129	0xbe279471	-0.1636522
130	0xbc758eca	-0.014987657
131	0xbe51c2ea	-0.2048451
132	0xbe0b73a1	-0.13618328
133	0x3e013a86	0.12619981
134	0x3c073f3c	0.008254822
135	0x3e8e9119	0.27845076
136	0x3db842dc	0.089971274
137	0x3e12f6c2	0.14351943
138	0x3e966e33	0.2938095
139	0x3e912d78	0.28355002
140	0xbcfc9bd5	-0.030836025
141	0x3ddff640	0.1093564
142	0x3e4e4c06	0.20146188
143	0x3da7bd03	0.08190348
144	0x3cf9192d	0.030407513
145	0xbd81b405	-0.06333164
146	0xbe611dc2	-0.21984008
147	0xbe912752	-0.28350312
148	0xbdbf1716	-0.09330575
149	0x3e90b8e6	0.28266066
150	0xbe2f0e7f	-0.17095374
151	0x3e0bde9d	0.13659139
152	0xbe65cd48	-0.2244159
153	0xbdf92e35	-0.121670164
154	0x3cb5cdd6	0.022192877
155	0x3ba74d06	0.0051056175
156	0xbe97033e	-0.2949466
157	0xbe0ccb0c	-0.13749331
158	0xbe679df3	-0.22618847
159	0x3e3d1297	0.18464123
160	0x3e0c0c5a	0.13676587
161	0x3dc9f696	0.09861486
162	0x3e3a29c3	0.18179993
163	0x3e524185	0.20532806
164	0xbc8b47b1	-0.017001959
165	0x3dd2380a	0.10264595
166	0xbe4cb7eb	-0.19992034
167	0x3dc98d91	0.09841455
168	0x3e2379c6	0.15964422
169	0x3e8380f5	0.25684324
170	0xbe2a3f9f	-0.16625832
171	0xbdda474b	-0.10658129
172	0xbe968c1a	-0.29403764
173	0xbe30b0a7	-0.17254888
174	0xbde1acbb	-0.11019274
175	0xbe0d24f3	-0.13783626
176	0xbe3555fa	-0.17708579
177	0xbe033444	-0.12812907
178	0xba4d95bd	-0.0007842442
179	0x3e4b3560	0.1984458
180	0x3e8622c9	0.26198414
181	0xbe1a9e61	-0.1509948
182	0x3e4bf8c0	0.1991911
183	0x3e0080e8	0.12549174
184	0x3e8de7ca	0.27715904
185	0xbd123727	-0.03569713
186	0xbce0f868	-0.0274622
187	0xbcdf5761	-0.027263345
188	0xbd58e203	-0.052949917
189	0x3e9be1ab	0.30445608
190	0x3dc777fb	0.09739681
191	0xbd5cbc1f	-0.053890344
192	0xbe958144	-0.29200184
193	0xbe8ee255	-0.27907053
194	0xbe4479f3	-0.19187145
195	0xbdeb75ed	-0.11497102
196	0x3d59a521	0.053135995
197	0x3d019a92	0.03164155
198	0x3cf78e1f	0.030219136
199	0xbdb1b6bd	-0.08677433
200	0xbe84f15d	-0.25965396
201	0xbd4c4b49	-0.049876485
202	0xbccd89e0	-0.025090158
203	0xbdeb1c8a	-0.11480053
204	0xbe446655	-0.19179662
205	0xbd34995b	-0.044091564
206	0x3c6a7f06	0.014312511
207	0xbcbf0ad2	-0.02332059
208	0x3e81d6c6	0.25359172
209	0x3e3c5095	0.18390115
210	0x3e7fce05	0.24980934
211	0x3e275326	0.16340312
212	0xbe967ff5	-0.29394498
213	0xbe7d259e	-0.24721381
214	0xbe115e1d	-0.14196058
215	0x3e6c9e75	0.23107322
216	0x3e5ed24b	0.21759908
217	0xbe73ba47	-0.23801528
218	0xbe60b260	-0.21943045
219	0x3e8f06d2	0.2793489
220	0x3db599ff	0.08867263
221	0xbe10a77e	-0.14126393
222	0xbd4e5f70	-0.050383985
223	0xbe1e8258	-0.1547941
224	0x3e9610b9	0.29309633
225	0xbcc42fa7	-0.023948504
226	0xbc3d36a9	-0.0115486765
227	0xbe009681	-0.12557413
228	0x3e745614	0.23860961
229	0x3e86a05a	0.26294214
230	0x3e814fca	0.25256187
231	0xbdbeef5c	-0.09322998
232	0xbe167e6b	-0.14696662
233	0xbe99545f	-0.29947183
234	0x3e5d8fe1	0.21636917
235	0xbe50c769	-0.20388569
236	0x3dbcd29d	0.09219859
237	0x3e89efc9	0.26940754
238	0xbe2f24b0	-0.17103839
239	0x3d281613	0.041036677
240	0xbe00d00e	-0.12579367
241	0xbe8c1377	-0.273586
242	0xbb496d6f	-0.0030735394
243	0xbe026bdb	-0.12736456
244	0x3e4c7d8f	0.19969772
245	0xbe1c3d19	-0.15257682
246	0x3e6a6722	0.22890905
247	0x3e472c4b	0.1945049
248	0x3e3aaac1	0.182292
249	0xbdb00e19	-0.08596439
250	0xbe6d6ead	-0.2318675
251	0xbde8686d	-0.11348043
252	0x3e451286	0.19245347
253	0xbd99b07e	-0.07504366
254	0x3e96609f	0.2937059
255	0x3e7df8bb	0.24801914

net.2.bias f4 [32]
0	0xbd0c9602	-0.034322746
1	0xbb9d983d	-0.004809408
2	0x00000000	0.0
3	0x00000000	0.0
4	0x3bbd0234	0.005768085
5	0x00000000	0.0
6	0x00000000	0.0
7	0x00000000	0.0
8	0xbca319a9	-0.019909697
9	0xbd1fe90c	-0.03904061
10	0x00000000	0.0
11	0x00000000	0.0
12	0x00000000	0.0
13	0x00000000	0.0
14	0x00000000	0.0
15	0x3d08bd20	0.03338349
16	0x3d3ce4b0	0.04611653
17	0xbcbe05dd	-0.023196155
18	0x00000000	0.0
19	0xbc34d3e7	-0.01103685
20	0x00000000	0.0
21	0x00000000	0.0
22	0x00000000	0.0
23	0x3d400f6d	0.04688971
24	0x00000000	0.0
25	0xbcd3b3ff	-0.025842665
26	0x00000000	0.0
27	0xbd06a64d	-0.03287344
28	0xbcc0385b	-0.023464372
29	0xbba86bf0	-0.0051398203
30	0x3be649f8	0.0070278607
31	0x00000000	0.0

net.4.weight f4 [3, 32]
0	0xbebc42ca	-0.36769706
1	0x3e0512a1	0.12995388
2	0x3b7b370c	0.003833237
3	0xbe8626a6	-0.2620136
4	0x3d723df2	0.059141107
5	0xbe06e4ca	-0.13173214
6	0xbec80586	-0.39066714
7	0x3eb80746	0.3594305
8	0xbec6d3c6	-0.38833445
9	0x3e28f02e	0.16497871
10	0x3cbfa7cd	0.023395443
11	0xbd95ed38	-0.073206365
12	0x3edd313a	0.4320162
13	0x3edbee10	0.42955065
14	0x3e9285f3	0.2861782
15	0xbea9140b	-0.33023104
16	0x3ec5fe50	0.38670588
17	0xbe49449b	-0.19655077
18	0x3c6352f5	0.013874759
19	0x3e0bc62f	0.1364982
20	0x3ceea3b4	0.029130794
21	0x3e2f2cb4	0.17106897
22	0x3de3c97f	0.11122417
23	0x3ead0d24	0.33799088
24	0x3e7b672a	0.24551073
25	0xbe10dcde	-0.14146754
26	0x3d9ca7e7	0.07649212
27	0x3d8a8a04	0.06764606
28	0x3eb15878	0.3463781
29	0xbebbba38	-0.3666551
30	0x3e0947c2	0.1340628
31	0x3eae9d84	0.3410455
32	0xbe4570a4	-0.1928125
33	0x3e6bd3ca	0.2303001
34	0x3e19c5ce	0.15016863
35	0x3ddb6edf	0.10714506
36	0xbe31c5b7	-0.17360578
37	0x3ec58c3b	0.3858355
38	0x3e6e286b	0.23257606
39	0xbec3ae58	-0.3821895
40	0xbe3af674	-0.18258077
41	0x3e4c0aa1	0.1992593
42	0xbdd17758	-0.10227841
43	0x3ec8a903	0.39191446
44	0xbd1c3458	-0.038135856
45	0xbe379a7c	-0.17930025
46	0xbe667123	-0.22504096
47	0x3e889387	0.26675054
48	0x3df1ff31	0.11816252
49	0x3d01f0d4	0.031723812
50	0x3ed66764	0.41875756
51	0xbe9b05b8	-0.302778
52	0x3d9993a8	0.07498866
53	0xbeaa4441	-0.332552
54	0xbe3283e0	-0.17433119
55	0x3db52068	0.088440716
56	0x3ea72756	0.32647198
57	0x3e5ef2db	0.2177233
58	0x3e7c3ef4	0.2463339
59	0xbc5553c7	-0.013020462
60	0x3e51c65e	0.20485827
61	0x3e9ea24c	0.30983198
62	0xbd023056	-0.031784378
63	0xbeac77f0	-0.33685255
64	0x3d9057e5	0.070480146
65	0xba7658cf	-0.0009397389
66	0x3eda6fb1	0.4266334
67	0x3eb3a87a	0.35089475
68	0x3dcf9c0a	0.10137184
69	0xbe936bb2	-0.28793103
70	0x3ccd9cb3	0.025099134
71	0xbe099474	-0.13435537
72	0xbec70e08	-0.38877892
73	0xbdc03d77	-0.093867235
74	0x3d56b224	0.052415982
75	0xbe0ee8a2	-0.1395593
76	0xbe9797ba	-0.29607946
77	0x3ebde46f	0.37088344
78	0xbea166fe	-0.3152389
79	0x3e8e17ba	0.27752477
80	0x3dc3da70	0.09563148
81	0xbec2603e	-0.37964052
82	0x3eb09a84	0.34492886
83	0x3dd9e1c1	0.10638762
84	0xbea0a63f	-0.31376836
85	0xbe1ea07c	-0.15490907
86	0xbd39c297	-0.04535159
87	0x3de050b7	0.10952895
88	0x3eb7a496	0.35867757
89	0xbebf1c52	-0.37326294
90	0xbbd62f19	-0.006536376
91	0xbe772165	-0.24133833
92	0xbece89ac	-0.4033941
93	0xbed23e97	-0.41063377
94	0x3a48cff4	0.0007660382
95	0xbeb39a0d	-0.3507847

net.4.bias f4 [3]
0	0x3d2e9e44	0.042631403
1	0x3d0a7f02	0.03381253
2	0x3da20bc3	0.079123996

net.0.weight f4 [64, 82]
0	0x3e3a37b3	0.1818531
1	0x3e8118e7	0.2521431
2	0x3e167e28	0.14696562
3	0xbe5626bf	-0.20913218
4	0xbc2ff4e4	-0.010739539
5	0xbe7b3f89	-0.24535955
6	0x3e1b85a0	0.15187693
7	0x3cda3466	0.026636314
8	0x3cedd2b8	0.029031143
9	0xbdc9e784	-0.09858611
10	0xbe59cd8e	-0.21269819
11	0xbe40f8c9	-0.18844904
12	0xbe1c3efc	-0.15258402
13	0x3e811b7a	0.25216275
14	0x3e684541	0.22682668
15	0xbc16f839	-0.009214454
16	0x3cb9587f	0.022625206
17	0x3e58b2f5	0.21162017
18	0xbde5bf66	-0.11218147
19	0x3d09b5b5	0.033620555
20	0xbb6f4c57	-0.0036514008
21	0xbe800ad2	-0.25008255
22	0x3e806f94	0.25085127
23	0xbd3b1e65	-0.045683283
24	0x3b3bb8a6	0.0028643995
25	0xbcb2ada2	-0.02181131
26	0x3d9a9935	0.07548753
27	0xbe68f5f1	-0.22750069
28	0xbdf1cb18	-0.11806315
29	0xbe6bdcb4	-0.2303341
30	0x3e07a5ce	0.13246843
31	0xbe3d9fc9	-0.18517984
32	0x3d99e51a	0.07514401
33	0xbe3e3f48	-0.18578827
34	0xbe1d3a0b	-0.15354173
35	0xbdb6606c	-0.0890511
36	0x3cff2bbc	0.031148784
37	0x3c08c96c	0.008348804
38	0xbdf5c41c	-0.120002955
39	0x3e3444ef	0.17604421
40	0x3de0d1c0	0.10977507
41	0xbe6e26a7	-0.23256932
42	0x3cdf9234	0.027291395
43	0xbda4675f	-0.08027529
44	0x3d4211c9	0.047380242
45	0xbddfb415	-0.1092302
46	0xbdcc35e6	-0.09971218
47	0xbe6c08fb	-0.23050301
48	0x3e2892be	0.16462228
49	0x3e7fec03	0.24992375
50	0xbe1aa27d	-0.15101047
51	0xbe5ddbb9	-0.21665849
52	0xbdce7582	-0.100810066
53	0xbd57493d	-0.05256008
54	0xbdc9c776	-0.09852497
55	0xbdd5b6d2	-0.10435261
56	0xbdafdd09	-0.08587081
57	0x3dac0e2b	0.0840114
58	0xbdba54bd	-0.09098194
59	0x3e71f08f	0.23626922
60	0x3dd58b2b	0.10426935
61	0xbe4223b9	-0.1895894
62	0x3e5d55b2	0.21614721
63	0xbdd4e684	-0.1039553
64	0xbdf69f7c	-0.12042138
65	0xbe316282	-0.17322734
66	0x3e3b207e	0.18274114
67	0xbde9f3d7	-0.11423462
68	0xbd9035a0	-0.07041478
69	0xbd11ed4a	-0.035626687
70	0xbe3583ad	-0.17726012
71	0xbe01a2b3	-0.12659721
72	0x3e7dd1d7	0.24787079
73	0xbe87549a	-0.26431733
74	0x3c9cf2da	0.01915877
75	0x3d8eeb4b	0.06978472
76	0xbdec3b02	-0.11534692
77	0xbcc2a3d2	-0.023759756
78	0xbdf9f446	-0.122047946
79	0x3e61014c	0.21973151
80	0x3e845389	0.25844982
81	0x3e04bb15	0.12961991
82	0x3e54258c	0.20717448
83	0xbdd6459c	-0.10462496
84	0x3e4132d7	0.1886705
85	0x3e609a1a	0.21933785
86	0xbc9c072d	-0.01904639
87	0x3e04b07f	0.12957953
88	0xbe291384	-0.16511351
89	0x3db6c231	0.08923758
90	0xbe815866	-0.25262755
91	0xbc02a022	-0.007972749
92	0x3e02f902	0.12790301
93	0xbcc9f28a	-0.024651784
94	0x3d957cfb	0.07299229
95	0xbda48daa	-0.08034833
96	0xbd0c8174	-0.034303144
97	0xbdb4e9ad	-0.088336326
98	0x3e089071	0.1333635
99	0xbde40422	-0.11133601
100	0xbcaf72b7	-0.021417005
101	0xbe6c3eab	-0.23070781
102	0x3e35166d	0.17684336
103	0xbc40b0f3	-0.011760938
104	0x3e114e9b	0.14190142
105	0x3e50c2b6	0.20386776
106	0xbc1e1696	-0.00964894
107	0xbe81aae6	-0.25325698
108	0xbe838448	-0.2568686
109	0xbc9d21eb	-0.019181212
110	0x3dde6a1b	0.10860082
111	0x3e77eb47	0.24210845
112	0x3e39154b	0.18074529
113	0xbe664706	-0.22488031
114	0xbd11095c	-0.035409316
115	0xbe2562ed	-0.16151018
116	0x3bacabe8	0.0052695163
117	0x3de3d27b	0.1112413
118	0xbd783cbe	-0.060604803
119	0x3e26c472	0.16285875
120	0x3cac6b75	0.021047333
121	0x3d2f4802	0.04279328
122	0x3e831310	0.2560048
123	0x3d1dc6e4	0.038519755
124	0x3e04409f	0.12915276
125	0xbced2bd2	-0.02895156
126	0x3e858f93	0.260861
127	0xbe195535	-0.1497391
128	0x3da972e9	0.082738705
129	0xbe686bb1	-0.22697331
130	0xbd18e32e	-0.03732603
131	0xbe42741a	-0.18989602
132	0x3de2d2ca	0.11075361
133	0xbe1f2be9	-0.15544094
134	0xbe41d11c	-0.18927425
135	0x3ca9b80f	0.020717649
136	0xbd571f25	-0.052519936
137	0xbdb7b8fd	-0.089708306
138	0xbe2e35ad	-0.17012663
139	0x3e6cde02	0.23131564
140	0xbd810a73	-0.06300821
141	0xbaaf04b0	-0.0013352837
142	0x3d924c11	0.07143415
143	0x3e16a1ea	0.14710203
144	0xbe84c489	-0.25931194
145	0xbc012afa	-0.007883782
146	0x3e2aecda	0.16691914
147	0x3e1c2ec3	0.15252213
148	0x3e861201	0.2618561
149	0xbbfd113c	-0.0077230018
150	0xbdd033d6	-0.10166137
151	0x3da278a4	0.079331666
152	0x3cd96100	0.026535511
153	0x3e623807	0.22091685
154	0xbe20c0b9	-0.15698518
155	0xbe8073c7	-0.2508833
156	0x3e255de2	0.16149095
157	0x3d391da1	0.045194272
158	0x3e44ed82	0.19231227
159	0xbd6b1fb1	-0.05740327
160	0xbe84c69b	-0.25932774
161	0x3e35ea6f	0.1776521
162	0xbcd440f0	-0.02590987
163	0x3e624b60	0.22099066
164	0xbe759aef	-0.23984884
165	0xbe3b7fff	-0.18310545
166	0xbc6cbd97	-0.014449499
167	0xbe839361	-0.2569838
168	0xbe050d77	-0.12993418
169	0xbdcc95fa	-0.09989543
170	0x3e39e9c3	0.1815558
171	0x3e42af1f	0.19012116
172	0xbe4e3fb0	-0.20141482
173	0xbe219382	-0.15778926
174	0x3c8b043f	0.016969798
175	0x3dc3131d	0.0952513
176	0x3dbd0dbc	0.09231135
177	0x3def485e	0.11683725
178	0x3e0bfe53	0.13671236
179	0x3d968310	0.07349217
180	0x3dbee7ce	0.09321557
181	0x3e88dc46	0.26730555
182	0x3cb52961	0.022114458
183	0x3dbd5f71	0.0924672
184	0x3d1b20a5	0.03787293
185	0xbd9f8d25	-0.07790593
186	0x3e5f4748	0.21804535
187	0x3ddf1581	0.108927734
188	0xbe3e7e67	-0.18602906
189	0x3e467ea7	0.19384252
190	0x3d59ac4d	0.053142834
191	0xbe323cdf	-0.17406033
192	0xbbd59459	-0.0065179286
193	0xbe70b4b9	-0.2350644
194	0x3d84e68a	0.06489284
195	0x3d51a40e	0.051181845
196	0x3e0012cc	0.1250717
197	0x3e0e9571	0.13924195
198	0xbe5cd060	-0.21563864
199	0x3e3573e3	0.17719989
200	0xbe05c523	-0.13063483
201	0x3e84f83e	0.25970644
202	0xbe75b64e	-0.23995325
203	0x3e13fda3	0.14452223
204	0x3e846398	0.25857234
205	0xbdb0ec59	-0.0863883
206	0xbe042623	-0.12905173
207	0x3e5eafe5	0.21746786
208	0x3e61667b	0.2201175
209	0xbe10250a	-0.1407663
210	0x3d8acee9	0.06777746
211	0xbe321b49	-0.17393221
212	0x3dccf591	0.100077756
213	0x3e569fc5	0.20959385
214	0xbc3abed7	-0.011398039
215	0x3e2501bc	0.16113943
216	0xbd7bd679	-0.061483834
217	0x3bb1dd25	0.005427974
218	0xbe2b70ab	-0.16742198
219	0xbe89d074	-0.2691685
220	0x3d84542e	0.064613685
221	0x3e84b7c7	0.2592146
222	0x3e39de24	0.18151146
223	0xbe6533cc	-0.2238304
224	0x3d5653d4	0.05232604
225	0x3d713813	0.058891367
226	0x3e1a8ac9	0.15092005
227	0x3a275f58	0.0006384752
228	0x3e41be7f	0.18920325
229	0x3e21f7b2	0.15817145
230	0xbe31851b	-0.17335932
231	0x3e8571ae	0.26063293
232	0x3e167cdd	0.14696069
233	0xbdca6d8c	-0.09884176
234	0x3d8fc894	0.07020679
235	0xbd77184c	-0.060325906
236	0xbd1d2b49	-0.038371358
237	0x3e48c6f5	0.19607146
238	0x3dd0f6eb	0.10203346
239	0xbe83da8f	-0.25752684
240	0x3cbf1fa9	0.023330526
241	0x3db28e64	0.08718565
242	0xbc89e0b7	-0.016830785
243	0x3da09140	0.07840204
244	0x3e5830a1	0.211123
245	0x3df05279	0.117344804
246	0x3e64c00c	0.22338885
247	0xbe6bc229	-0.23023285
248	0x3d8c6276	0.068547174
249	0xbe817bee	-0.25289863
250	0x3b3e823b	0.0029069323
251	0x3deba806	0.11506657
252	0xbe3d947c	-0.18513674
253	0xbe792772	-0.24331453
254	0xbe16640e	-0.14686605
255	0x3d59e54f	0.0531972

net.0.bias f4 [64]
0	0x00000000	0.0
1	0x00000000	0.0
2	0x00000000	0.0
3	0x00000000	0.0
4	0x00000000	0.0
5	0x00000000	0.0
6	0x00000000	0.0
7	0x00000000	0.0
8	0x00000000	0.0
9	0x00000000	0.0
10	0x00000000	0.0
11	0x00000000	0.0
12	0x00000000	0.0
13	0x00000000	0.0
14	0x00000000	0.0
15	0x00000000	0.0
16	0x00000000	0.0
17	0x00000000	0.0
18	0x00000000	0.0
19	0x00000000	0.0
20	0x00000000	0.0
21	0x00000000	0.0
22	0x00000000	0.0
23	0x00000000	0.0
24	0x00000000	0.0
25	0x00000000	0.0
26	0x00000000	0.0
27	0x00000000	0.0
28	0x00000000	0.0
29	0x00000000	0.0
30	0x00000000	0.0
31	0x00000000	0.0
32	0x00000000	0.0
33	0x00000000	0.0
34	0x00000000	0.0
35	0x00000000	0.0
36	0x00000000	0.0
37	0x00000000	0.0
38	0x00000000	0.0
39	0x00000000	0.0
40	0x00000000	0.0
41	0x00000000	0.0
42	0x00000000	0.0
43	0x00000000	0.0
44	0x00000000	0.0
45	0x00000000	0.0
46	0x00000000	0.0
47	0x00000000	0.0
48	0x00000000	0.0
49	0x00000000	0.0
50	0x00000000	0.0
51	0x00000000	0.0
52	0x00000000	0.0
53	0x00000000	0.0
54	0x00000000	0.0
55	0x00000000	0.0
56	0x00000000	0.0
57	0x00000000	0.0
58	0x00000000	0.0
59	0x00000000	0.0
60	0x00000000	0.0
61	0x00000000	0.0
62	0x00000000	0.0
63	0x00000000	0.0
