work_dir/algorithmic_trading_BTC2_deepscalper_deepscalper_adam_mse/checkpoints/best.pth (torch, 130251 bytes, 36 tensors)

net.0.weight f4 [64, 82]
000000 d6 74 d8 3e e7 5c d5 3e 6f b2 bf 3e a3 d7 c3 3c
       0.4227664 0.4167244 0.37440822 0.023906535
000010 9a 8d 50 3e d3 12 f1 3d 44 e6 ff 3e 54 25 d1 3e
       0.20366517 0.117711686 0.49980366 0.40848792
000020 26 31 e2 3e 90 11 ab 3e 88 11 e3 3c 76 f2 17 bc
       0.44178122 0.33411837 0.02771832 -0.009274116
000030 72 8f 03 be 90 bb af 3e a9 f5 4a 3e ba 6f 01 be
       -0.12847689 0.34322786 0.19820274 -0.12640277
000040 b2 42 9f bc c3 06 32 3e fa 80 21 be cd b7 bb 3c
       -0.019440982 0.17385392 -0.15771857 0.022914791
000050 bb 72 c4 3e 10 08 11 3f c4 a7 56 3f 14 19 6d 3f
       0.38368782 0.5665293 0.8384974 0.9261639
000060 0a 8d 4e 3c bc 48 22 40 43 23 43 40 03 6d f6 3f
       0.0126068685 2.5356894 3.0490272 1.9252018
000070 10 ae 10 40 ca 22 32 40 17 1a b3 3f 7e fd d8 3f
       2.260624 2.7833734 1.3992337 1.695236
000080 bf 33 22 40 d7 d8 f2 3f 82 9e ad 3f 95 c9 07 40
       2.5344083 1.8972424 1.3563998 2.1216786
000090 8c 95 15 40 9c 6e 0d 40 f7 cd d8 3f cf 99 31 40
       2.3372526 2.209876 1.6937855 2.7750127
0000a0 1c e2 0f 40 83 f4 e0 3f c3 e0 c1 3f d9 b0 c3 3f
       2.2481756 1.7574619 1.5146717 1.5288345
0000b0 de 70 df 3f 3c 77 40 3f 95 56 3d 3f 61 3f 17 3f
       1.7456319 0.7518194 0.7396024 0.59081084
0000c0 86 be 77 3f e8 08 87 3f 71 8b 81 bf 8c 29 87 bf
       0.9677509 1.0549593 -1.0120679 -1.0559554
0000d0 20 10 6c bf 7f 0e 5b bf e0 50 67 bf d2 b6 d5 bd
       -0.92212105 -0.85568994 -0.9035778 -0.10435261
0000e0 09 dd af bd 2b 0e ac 3d bd 54 ba bd 8f f0 71 3e
       -0.08587081 0.0840114 -0.09098194 0.23626922
0000f0 6c 5b 66 bf 46 0f 92 bf e0 d3 36 bf 7d 54 0f bf
       -0.8998325 -1.1410911 -0.71417046 -0.55988294
000100 53 c1 f0 be 8d 20 51 bf e1 72 e3 be ce 00 4b bf
       -0.47022495 -0.81690294 -0.44423583 -0.792981
000110 db a6 29 be 27 b5 1f bf f8 20 81 bf d8 a0 7c bf
       -0.16567557 -0.6238579 -1.0088186 -0.9868293
000120 18 a0 89 3d be 53 1e be e1 57 d5 be c9 8d 4a bf
       0.067199886 -0.15461633 -0.4166861 -0.79122597
000130 69 11 70 bf f6 64 0f bf b4 9c ec be 15 c5 47 bf
       -0.93776566 -0.5601343 -0.46213305 -0.780351
000140 19 7d 05 3e 96 24 a0 c1 8e d8 35 3e 27 6f 09 be
       0.13036002 -20.017864 0.1775839 -0.13421308
000150 2e e6 22 3e 18 4d 42 3e 26 2d 47 bd c1 e2 cc 3d
       0.15908119 0.18974721 -0.04862704 0.100041874
000160 91 51 47 be 0b 8c 74 3d 7f 77 90 be f9 a0 19 bd
       -0.19464709 0.059703868 -0.28216168 -0.03750703
000170 b0 52 c9 3d 5d 35 5e bd 8a bd 31 3d 30 2c e1 bd
       0.098302245 -0.05425011 0.04339365 -0.10994756
000180 e3 dc 82 bd 19 22 f1 bd 34 dd d4 3d 82 28 10 be
       -0.06389787 -0.11774082 0.10393754 -0.14077953
000190 db 64 50 bd 01 35 85 be b9 a7 1c 3e f3 b0 40 bc
       -0.050877433 -0.26017 0.15298356 -0.011760938
0001a0 ca bf f1 3d 02 54 38 3e 87 40 09 bd e6 aa 81 be
       0.11804159 0.18000796 -0.033508804 -0.25325698
0001b0 a3 bb 8f be eb 21 9d bc 1b 6a de 3d 47 eb 77 3e
       -0.28072843 -0.019181212 0.10860082 0.24210845
0001c0 4b 15 39 3e 06 47 66 be 3f c4 72 bd a1 d1 3d be
       0.18074529 -0.22488031 -0.059269186 -0.18536998
0001d0 e8 ab ac 3b 7b d2 e3 3d be 3c 78 bd 72 c4 26 3e
       0.0052695163 0.1112413 -0.060604803 0.16285875
0001e0 75 6b ac 3c 02 48 2f 3d 6c b7 6d 3e e4 c6 1d 3d
       0.021047333 0.04279328 0.23214501 0.038519755
0001f0 9f 40 04 3e d2 2b ed bc 71 b0 72 3e 68 df 2f be
       0.12915276 -0.02895156 0.2370012 -0.17175066
000200 af 2c 77 3d ec b9 7f be 31 91 77 bd 1a 5a 5a be
       0.060345348 -0.24973267 -0.0604412 -0.21323434
000210 98 f3 07 3e a8 3d 08 be e1 82 2a be 09 8a 33 3d
       0.13276517 -0.1330477 -0.16651489 0.043832812
000220 43 0e ef bc fd b8 b7 bd ad 35 2e be 02 de 6c 3e
       -0.029181605 -0.089708306 -0.17012663 0.23131564
000230 73 0a 81 bd b0 04 af ba 2e 1c 33 3d 25 cb f5 3d
       -0.06300821 -0.0013352837 0.043728046 0.12001637
000240 cf a7 92 be e9 b5 0e bd 02 2f 0f 3e 95 17 00 3e
       -0.28643653 -0.03484145 0.13982776 0.12508996
000250 0e 7b 70 3e 68 c9 0d bd 70 db 03 be dd 6c 57 3d
       0.23484442 -0.034615904 -0.12876678 0.052594054
000260 6e ce 3d ba 5b 49 46 3e 86 78 3c be 8a 56 8e be
       -0.0007240538 0.1936392 -0.18405351 -0.278004
000270 e9 8c 0a 3e 74 58 94 3c f9 26 29 3e 6c c5 ac bd
       0.13530315 0.018108584 0.16518773 -0.08436093
000280 89 a5 92 be a2 44 1b 3e 55 a6 63 bd d9 cd 44 3e
       -0.28641918 0.151629 -0.05557855 0.1921915
000290 92 dd 92 be 42 58 68 be 37 3c b8 bd bd cc ba be
       -0.2868467 -0.22689918 -0.0899586 -0.36484328
0002a0 fe 75 82 be 9c 6a bb be dc 5f a2 bd 51 55 ba bd
       -0.25480646 -0.36604774 -0.0792844 -0.09098304
0002b0 e0 98 fd be 31 18 ed be 27 9e 1d bd 4b fa 10 3d
       -0.49530697 -0.4630752 -0.038480904 0.035394948
0002c0 7e f7 8d 3d a4 ee ba 3b d2 df 94 3d ca 0b 57 be
       0.06931971 0.0057047177 0.07269253 -0.21000591
0002d0 2d 97 75 be 6f c7 0f bd 1e 8d 85 be e4 bd 22 be
       -0.2398345 -0.035102304 -0.26084226 -0.1589275
0002e0 de d6 49 3f 59 c3 83 be 6c 8b 41 3f 8c c1 1a 3f
       0.78843486 -0.25734976 0.75603366 0.6045158
0002f0 7e 2f 74 3e 8e 2b 59 3f 5d d7 04 be 98 66 25 3f
       0.23846242 0.84832084 -0.1297278 0.6460967
000300 e4 da ce be fa e6 d9 be e3 13 85 3e 72 4d 53 bd
       -0.40401375 -0.42559034 0.25991735 -0.05158753
000310 d4 e0 8a be f1 42 b2 3e 7c 30 c3 be 42 96 92 3d
       -0.27124655 0.34816697 -0.38122928 0.07157566
000320 94 73 2b 3e 2a 53 8a 3e a1 11 7c 3e 7c 4a 68 be
       0.16743308 0.27016574 0.246161 -0.22684664
000330 95 b1 56 3d 47 ff e9 3e 1b 80 eb 3d fb bb e8 3e
       0.05241545 0.45702574 0.114990436 0.45455918
000340 9d c9 66 3f f1 84 fd be a2 44 ad be b8 c7 1a bf
       0.9015139 -0.4951549 -0.33841425 -0.60460997
000350 4b 8b ba be 67 0a 8d be 07 9c af 3e 75 3c 11 3f
       -0.36434397 -0.27547 0.34298727 0.56732875
000360 0c 07 bd 3e 15 90 f0 3e b5 a1 a2 3e 74 d0 89 be
       0.3691944 0.46984926 0.31763998 -0.2691685
000370 2e 54 84 3d c7 b7 84 3e 24 de 39 3e cc 33 65 be
       0.064613685 0.2592146 0.18151146 -0.2238304
000380 ae 13 4a 3f 50 7a 58 3f f4 d5 86 3f 39 d9 48 3f
       0.7893628 0.84561634 1.0534043 0.78456455
000390 55 b5 0e 3f 98 b2 45 3f d5 c0 0b 3f d9 fd 94 3f
       0.5574544 0.7722564 0.54591113 1.1639968
0003a0 9b a3 3d 3f 02 2e c4 3e 1a e1 20 3f af 27 01 3f
       0.7407777 0.3831635 0.6284348 0.5045118
0003b0 34 c4 fe 3e 86 5d 9f 3e 5d 99 4b 3d 8f bc dd 3e
       0.49759066 0.3112604 0.049706805 0.4330792
0003c0 f3 dd 69 3f 19 fe 57 3f 75 d0 d8 3e 51 cf a0 3e
       0.9135429 0.843721 0.4234654 0.3140817
0003d0 66 86 4b bd af a8 9e 41 73 c4 b7 bc 33 e5 ea be
       -0.04968872 19.832365 -0.022432541 -0.4587799
0003e0 3c 38 1d be dc 4d 02 bf fc 7d 46 be 62 5d 2c 3c
       -0.15353483 -0.50900054 -0.19383997 0.010520311
0003f0 53 d9 91 be 87 04 bc be 75 b8 95 be dd 4a d8 bd
       -0.28486118 -0.36722204 -0.29242292 -0.10561154

net.0.bias f4 [64]
000000 db c9 5e 40 bb 75 c3 bc 16 d8 b4 3d ac 64 3d be
       3.4810703 -0.02385985 0.088302776 -0.18495435
000010 0e f5 b5 bc 78 e6 10 3f be d8 69 3f 4a 33 60 bd
       -0.022211578 0.5660167 0.9134635 -0.054736413
000020 07 b2 6a 40 00 00 00 00 78 9c ed 3f 34 75 15 c0
       3.667116 0.0 1.8563375 -2.3352785
000030 00 00 00 00 72 78 72 bc 80 45 b9 bb f1 9f 15 be
       0.0 -0.014799224 -0.005654037 -0.14611794
000040 98 23 59 bf 1f 6e ce be a3 29 ef 3e 83 ee 1d bb
       -0.84819937 -0.4031839 0.46711454 -0.0024098463
000050 8f 7c 92 bc b5 8a 2c 40 07 0f 3a c0 ad 61 12 3f
       -0.01788166 2.695966 -2.9071672 0.5718029
000060 4f c0 fd bf b5 86 89 bf 28 ca 48 be 0a e7 2b bc
       -1.9824313 -1.0744234 -0.19608366 -0.010492096
000070 36 a2 c1 be 46 b8 cc 3e e8 65 72 3f 00 00 00 00
       -0.3781907 0.3998434 0.94686747 0.0
000080 a1 07 32 bb cd b7 f6 be 3b f6 4a be e4 a4 15 3f
       -0.0027165192 -0.48187104 -0.19820492 0.5845473
000090 e7 f5 02 be 00 00 00 00 66 37 df bc 00 00 00 00
       -0.12789117 0.0 -0.027248096 0.0
0000a0 cc 24 0f bd d4 fe 43 be f1 04 b1 bc 00 bb 4b 40
       -0.0349472 -0.19140178 -0.021608802 3.1832886
0000b0 35 ca fc bd 00 07 17 40 b0 b2 98 3d e0 36 da 3f
       -0.123432554 2.3598022 0.07455957 1.7047997
0000c0 d8 a8 2f bc c7 7f d1 bf 40 11 8b 3e a4 64 03 c0
       -0.010721408 -1.636712 0.27161598 -2.0530176
0000d0 f2 8c ec bd dc e2 92 40 8f dc 3a 41 7a a2 50 bc
       -0.11550321 4.590193 11.678847 -0.01273405
0000e0 00 83 ec 3f 17 ad 41 3e c4 b0 05 bd a5 43 1d bf
       1.8477478 0.18913685 -0.03263928 -0.6143134
0000f0 00 00 00 00 82 c7 7a bc 7c 0d 11 be d9 92 00 40
       0.0 -0.015306355 -0.141653 2.0089629

net.2.weight f4 [32, 64]
000000 ce bf 5d be f5 79 32 3e 84 e6 04 bf f5 a2 36 3e
       -0.21655199 0.17429335 -0.5191424 0.178356
000010 a1 f1 c8 3d 9d e3 7f bf 77 fd 47 be 6b 3e 08 3d
       0.09811712 -0.99956685 -0.19530283 0.03326265
000020 6e dc 95 3e e7 61 d5 bd 02 3c d3 bf 8b e7 57 c0
       0.29269737 -0.10419064 -1.6502688 -3.3735073
000030 d2 54 38 be 66 63 c9 be 24 55 c2 be 57 92 d6 be
       -0.18001106 -0.39333647 -0.37955582 -0.41908523
000040 03 77 54 bf b0 bf 48 be ed 06 c8 be c6 c4 b8 bd
       -0.829941 -0.19604373 -0.39067784 -0.090219066
000050 37 19 75 3d 63 53 83 3c 89 21 30 bf 29 9c 07 be
       0.0598385 0.016030973 -0.6880117 -0.13243164
000060 5d dd 8b be 7c 8c f8 be 0d 29 6a be 5a 13 95 3e
       -0.27317324 -0.4854468 -0.22867222 0.29116327
000070 5f 20 b8 bd e8 91 49 bd 75 43 c8 be 71 e9 e8 bd
       -0.08990549 -0.049211413 -0.39113966 -0.113726504
000080 1e e2 b8 bc 76 c6 7f bf 88 fe 23 be 73 9f a5 3e
       -0.022568759 -0.999122 -0.16015065 0.32348213
000090 6f 39 89 be 51 49 d2 3d ba d8 33 bd 81 46 9a bd
       -0.2680163 0.1026789 -0.04390786 -0.07532979
0000a0 a9 50 77 bd c4 85 e3 be 8a 83 44 3d 0c 7a bc be
       -0.060379658 -0.44437993 0.047977008 -0.36811864
0000b0 5e 9e 09 bf a6 65 51 3d 03 1b 7a be 9a 63 d7 3d
       -0.53757274 0.05112233 -0.24424367 0.10517044
0000c0 05 f1 83 3e be 37 07 c0 9e d4 01 bf 7b 70 9f be
       0.2576982 -2.1127772 -0.50715053 -0.31140503
0000d0 d3 10 a0 be c7 3c 6b 3f 4f c3 99 3f 03 19 74 3e
       -0.31262836 0.91889614 1.2012728 0.23837666
0000e0 1f 35 17 3f 05 2f 8d bd 27 d9 fa bd 88 fd 8e 3d
       0.5906543 -0.06893734 -0.1224845 0.06981951
0000f0 cb 9f 87 be 07 9b 28 3d f9 1c 0c 3d 88 cb 14 c0
       -0.264891 0.04116347 0.034207318 -2.3249226
000100 df d2 d8 3e 6d b4 ce 3d a2 52 66 3e cc 38 0b bd
       0.42348382 0.10093007 0.2249246 -0.033989713
000110 41 28 b3 bd 9f f5 7c 3f b5 d7 67 be 56 7a 8f 3e
       -0.08747912 0.9881229 -0.2264088 0.28023022
000120 2e 71 18 3f 9b 67 dd 3d a6 a7 a6 3f 02 ee 24 3e
       0.595477 0.10810777 1.3019912 0.16106418
000130 9e 3e 82 3e b5 37 38 3c c2 f3 b1 3e 60 c7 7c bf
       0.25438398 0.01124375 0.34756285 -0.9874172
000140 94 1a 58 3f 33 c4 d0 3e ce e6 35 be 9f c0 9d be
       0.84415555 0.40774688 -0.17763826 -0.3081102
000150 51 61 0e 3e 05 18 1a be 16 61 ad 3e 0c 97 dc be
       0.13904311 -0.15048225 0.33863133 -0.4308399
000160 fe 37 be bc 02 d5 2c 3e e4 54 83 bc 34 9e cf bd
       -0.023220059 0.16878131 -0.01603169 -0.10137597
000170 d7 d3 60 3f ae 32 c6 3d bf f2 ee bd 90 04 8b 3c
       0.8782324 0.09677635 -0.11667394 0.016969949
000180 cc 25 99 be b5 e1 35 3f 38 f0 b3 3f 02 3c 71 be
       -0.2991165 0.71047527 1.4057684 -0.23558047
000190 8d 40 13 3e 8e 74 46 3e 1d bc fe bd 62 19 22 3d
       0.14380093 0.193804 -0.124382235 0.03957499
0001a0 70 9d 37 bc cb cd 42 3d fd b8 7e be 40 e4 0c be
       -0.01120697 0.04755954 -0.24875255 -0.13758945
0001b0 c5 8a 7a 3f aa 98 92 3e 91 04 06 bf 1c 1f c0 bd
       0.97867996 0.28632098 -0.5235072 -0.09380934
0001c0 ce 36 96 be ab ad 44 3e da c7 6b bc 54 9d a5 be
       -0.29338688 0.19206874 -0.01439091 -0.32346594
0001d0 e8 b5 0f be e6 af 12 bf 45 02 9b bf b5 2e 98 be
       -0.14034235 -0.5729965 -1.2110068 -0.29723135
0001e0 27 62 b9 be a7 bb 43 3e 78 b5 57 3e 4e fb 2c bd
       -0.36207697 0.19114552 0.21065319 -0.04223185
0001f0 73 e4 06 3e 02 3c 88 bd e1 43 d6 be b5 ce c5 3f
       0.13173084 -0.066520706 -0.41848662 1.5453707
000200 df 44 bf bc 71 94 27 be 2f 0a 72 be f8 c1 99 be
       -0.02334827 -0.1636522 -0.23636697 -0.300308
000210 a1 73 0b be 41 52 cd 3d c8 05 86 3c 19 91 8e 3e
       -0.13618328 0.10025454 0.016360179 0.27845076
000220 11 b2 f6 3e c2 f6 12 3e 59 4b 4b 3f e7 14 b6 3e
       0.4818273 0.14351943 0.79411846 0.35562822
000230 d5 9b fc bc fe ef 9a bd 05 9a f0 3e 34 f1 8d 3e
       -0.030836025 -0.07565306 0.46992508 0.27723086
000240 cd d2 10 3e bc d8 d2 bf 1c 11 a0 be 52 27 91 be
       0.14142914 -1.6472392 -0.31263053 -0.28350312
000250 16 17 bf bd a3 79 15 be 1c 00 9a bf 8c 28 c9 3e
       -0.09330575 -0.14597182 -1.2031283 0.39288747
000260 f6 64 84 c0 78 20 8a be 83 42 aa 3e 06 4d a7 3b
       -4.1373243 -0.26977897 0.3325387 0.0051056175
000270 e8 d3 56 be 54 2b 32 be 47 1c 04 bd 97 12 3d 3e
       -0.20979273 -0.17399341 -0.03225353 0.18464123
000280 5a 0c 0c 3e 07 7c a8 3d 82 46 89 3f 69 d5 86 3e
       0.13676587 0.08226781 1.0724642 0.26334694
000290 f1 63 4c 3e 0a 38 d2 3d eb b7 4c be 91 8d c9 3d
       0.1996 0.10264595 -0.19992034 0.09841455
0002a0 f8 3f a4 3d 1c 98 a7 3e 9f 3f 2a be 42 b2 5c be
       0.080200136 0.32733238 -0.16625832 -0.21552375
0002b0 3a 0d 0b bf 2c d8 5e 3e dc f0 48 be 6c 3e 2a 3e
       -0.5431706 0.2176215 -0.1962313 0.16625375
0002c0 fa 55 35 be 0d 28 96 bf e4 2a ac 3d 4d a6 0e c0
       -0.17708579 -1.1730973 0.08406618 -2.2289002
0002d0 c9 22 86 3e ab 43 13 3f 47 6e 9e 3e e8 80 00 3e
       0.26198414 0.5752513 0.3094351 0.12549174
0002e0 01 2e cf 3e 5e 3e 5c be 68 f8 e0 bc 57 84 28 bf
       0.40464786 -0.21508166 -0.0274622 -0.65826935
0002f0 03 e2 58 bd ab e1 9b 3e 41 d4 88 be 02 94 b8 3e
       -0.052949917 0.30445608 -0.26724437 0.3605042
000300 bb a8 64 bd 55 e2 8e be a5 47 a7 bf 96 04 01 bf
       -0.055824976 -0.27907053 -1.3068739 -0.5039762
000310 21 a5 59 3d 1b 1e 1f bf 80 0a 98 be bd b6 b1 bd
       0.053135995 -0.6215531 -0.2969551 -0.08677433
000320 8e e1 05 bf 49 4b 4c bd 23 a8 c7 bf c1 1f 1a c0
       -0.52297294 -0.049876485 -1.5598186 -2.408188
000330 55 66 44 be a5 77 53 3c 47 36 7e bf ea e1 1c bf
       -0.19179662 0.012906943 -0.9930157 -0.6128222
000340 40 40 24 3f 97 9e 59 3f 9a d0 fd 3e 26 53 27 3e
       0.6416054 0.85007614 0.49573213 0.16340312
000350 41 7f a2 be aa 7b db bd 72 8c c5 3e d4 db 3b 3e
       -0.31737712 -0.107169464 0.38583714 0.18345577
000360 37 73 b6 3f fb 5f be bf 29 2b bb be d2 06 8f 3e
       1.4253911 -1.4873041 -0.36556366 0.2793489
000370 7e 9f 11 3e 09 d7 99 be 87 c3 25 be 58 82 1e be
       0.14220998 -0.3004687 -0.16187869 -0.1547941
000380 b9 10 96 3e da 76 5c bd d7 d1 0d bf b5 64 af 3e
       0.29309633 -0.053824283 -0.55398315 0.3425652
000390 3a 86 06 be 5a a0 86 3e ca 4f 81 3e 5c ef be bd
       -0.13137141 0.26294214 0.25256187 -0.09322998
0003a0 25 b1 37 be aa 9c 87 bf e1 8f 5d 3e bf 3e 4d 3d
       -0.17938669 -1.0594685 0.21636917 0.050108667
0003b0 70 cf 0d bf a3 04 f3 bd d6 6b c4 be c9 83 3c bf
       -0.5539465 -0.11866119 -0.38363522 -0.7363859
0003c0 0e d0 00 be a5 44 1c c0 c1 08 8e bf fa d6 4e 3f
       -0.12579367 -2.4416897 -1.1096421 0.8079678
0003d0 8f 7d 4c 3e a7 df 03 3f a7 b6 02 3f 4b 2c 47 3e
       0.19969772 0.5151314 0.51059955 0.1945049
0003e0 6c 8b cd 3e cf 08 9f bf ad 6e 6d be 42 56 86 3e
       0.40145433 -1.2424563 -0.2318675 0.26237684
0003f0 86 12 45 3e 7e b0 99 bd 1c 13 68 3e 32 0a 27 c0
       0.19245347 -0.07504366 0.2266354 -2.6099973

net.2.bias f4 [32]
000000 5a df 8a 3f 2b ac 75 40 11 5c 4a 40 4b 69 13 3f
       1.0849411 3.8386333 3.1618693 0.5758254
000010 d4 d8 93 40 f1 75 80 bc a0 05 ec 3f 8e 6e 90 bd
       4.6202183 -0.015681239 1.8439217 -0.07052337
000020 74 56 7c bd ff 81 98 3f 2c 63 64 bc 6f 38 7a c0
       -0.061605886 1.1914672 -0.01393966 -3.9096944
000030 c1 ea 43 3c 22 5a 29 bd 82 cf f6 bc 5c ab 7a 3f
       0.011957825 -0.041345723 -0.030128244 0.97917724
000040 31 6d 8d 40 67 6a 18 bd 46 1f 81 bd c1 a3 c2 40
       4.419579 -0.03721085 -0.06304793 6.0824895
000050 c7 4c 8c bd 72 cc 87 bf 9d cb 78 bd 55 cd 8c 40
       -0.068505816 -1.0609267 -0.060741056 4.400065
000060 09 00 c5 3f b2 7d 99 bd 21 91 97 bf ac 76 58 c0
       1.5390636 -0.074946776 -1.1841165 -3.3822432
000070 e0 96 e8 bd 85 f7 2e be 16 84 02 40 26 49 31 3e
       -0.11356902 -0.17086609 2.039312 0.1731306

net.4.weight f4 [3, 32]
000000 a3 43 2f bf f3 ae a1 3e d0 f2 9f 3f cf 63 a2 bf
       -0.6846258 0.31578788 1.2495975 -1.2686709
000010 68 21 6e 3f db 28 37 be 4e 8c 33 bf 74 90 b1 3e
       0.93019724 -0.17886679 -0.7013596 0.3468052
000020 1a ea c5 be 8f bf a2 3f ba b0 8c bc 60 62 14 c0
       -0.38655168 1.2714709 -0.017174114 -2.3185043
000030 85 8d 68 3f e7 7e c2 3e 5f e4 0f 40 28 11 fc bf
       0.9084094 0.37987444 2.2483137 -1.9692736
000040 0a 38 23 3f 54 1c 48 be 0e c9 cc 3c f8 d3 ce bd
       0.63757384 -0.19542056 0.024998214 -0.100990236
000050 9e b6 80 bb 0b c2 dc 3f 38 0d 93 3d 35 a2 11 3f
       -0.0039280197 1.7246717 0.07180256 0.56888133
000060 8f f3 de 3f c0 de 49 be 83 2a 42 bf 31 a1 0f c0
       1.7418078 -0.19713879 -0.7584612 -2.2442133
000070 e5 41 93 3e 96 87 aa be c0 29 4c 3f ab c9 c2 3f
       0.2876121 -0.3330657 0.79751205 1.5217794
000080 15 19 68 be a4 f0 a1 3e 62 38 ad bd fd 35 95 bd
       -0.22665818 0.31628907 -0.0845802 -0.07285688
000090 57 aa cd bc 68 98 b5 3e 5b 0d 1c 3f bb 71 b6 be
       -0.025105638 0.3546784 0.6095788 -0.35633644
0000a0 ac 41 3c be 1f 73 ac bd 58 77 d1 bd 77 2b 33 be
       -0.18384427 -0.08420395 -0.10227841 -0.1749705
0000b0 fc 24 1e 3e 7c 9a 37 be 12 8f 08 3f 2c ac 19 3d
       0.15443796 -0.17930025 0.5334331 0.03751771
0000c0 33 8d f7 3e 59 19 fc 3c 43 65 aa 3e c3 6d 5e 3e
       0.48349914 0.030773805 0.33280382 0.21721558
0000d0 02 1f 07 3e 60 13 8b 3e 09 85 12 be 84 f6 af 3e
       0.13195422 0.2716322 -0.14308561 0.34367764
0000e0 81 0a c9 bd 25 c4 0e 3e 1b 5a 9c bd e2 a8 a8 3d
       -0.098164566 0.1394201 -0.07634374 0.08235337
0000f0 c2 38 05 3e 2b 4f 5c 3d 4d 85 6f be f3 02 12 bd
       0.13009933 0.053786438 -0.23390694 -0.035647344
000100 e5 49 ff 3f 0d 0b af 3e 58 53 8b 3e 56 85 9e 3d
       1.9944426 0.3418812 0.27212024 0.077402756
000110 44 00 64 40 b2 6b 93 be 95 b0 8b 3f 96 ad 0b bd
       3.5625162 -0.28793103 1.0913264 -0.03410109
000120 5d 42 c7 be de e7 07 c0 54 0f 91 3c 32 64 48 40
       -0.3891782 -2.123527 0.017707504 3.1311154
000130 89 49 18 bf 54 e5 ae 3e 17 85 aa bf e6 34 a7 bf
       -0.59487206 0.34159338 -1.3321866 -1.3063018
000140 db 97 a5 3e 80 5b c2 be d7 53 94 3e 35 51 b6 bc
       0.3234242 -0.37960434 0.28970215 -0.02225552
000150 e8 64 79 be 79 bc 46 be 42 50 3c bb c1 e8 af 3e
       -0.24354899 -0.19407834 -0.002873436 0.34357265
000160 0d 3b 30 bf 6f cb 8d be 92 6a 84 bf 18 7d 7e be
       -0.68840104 -0.2769427 -1.0345023 -0.24852407
000170 7f 55 cd be b2 e4 17 bf da d4 1e bf 47 78 ae bf
       -0.4010429 -0.59333336 -0.62043536 -1.3630456

net.4.bias f4 [3]
000000 0d ec 40 40 aa f3 4c 40 23 ba 94 40
       3.0144074 3.202372 4.647722

net.0.weight f4 [64, 82]
000000 d6 74 d8 3e e7 5c d5 3e 6f b2 bf 3e a3 d7 c3 3c
       0.4227664 0.4167244 0.37440822 0.023906535
000010 9a 8d 50 3e d3 12 f1 3d 44 e6 ff 3e 54 25 d1 3e
       0.20366517 0.117711686 0.49980366 0.40848792
000020 26 31 e2 3e 90 11 ab 3e 88 11 e3 3c 76 f2 17 bc
       0.44178122 0.33411837 0.02771832 -0.009274116
000030 72 8f 03 be 90 bb af 3e a9 f5 4a 3e ba 6f 01 be
       -0.12847689 0.34322786 0.19820274 -0.12640277
000040 b2 42 9f bc c3 06 32 3e fa 80 21 be cd b7 bb 3c
       -0.019440982 0.17385392 -0.15771857 0.022914791
000050 bb 72 c4 3e 10 08 11 3f c4 a7 56 3f 14 19 6d 3f
       0.38368782 0.5665293 0.8384974 0.9261639
000060 0a 8d 4e 3c bc 48 22 40 43 23 43 40 03 6d f6 3f
       0.0126068685 2.5356894 3.0490272 1.9252018
000070 10 ae 10 40 ca 22 32 40 17 1a b3 3f 7e fd d8 3f
       2.260624 2.7833734 1.3992337 1.695236
000080 bf 33 22 40 d7 d8 f2 3f 82 9e ad 3f 95 c9 07 40
       2.5344083 1.8972424 1.3563998 2.1216786
000090 8c 95 15 40 9c 6e 0d 40 f7 cd d8 3f cf 99 31 40
       2.3372526 2.209876 1.6937855 2.7750127
0000a0 1c e2 0f 40 83 f4 e0 3f c3 e0 c1 3f d9 b0 c3 3f
       2.2481756 1.7574619 1.5146717 1.5288345
0000b0 de 70 df 3f 3c 77 40 3f 95 56 3d 3f 61 3f 17 3f
       1.7456319 0.7518194 0.7396024 0.59081084
0000c0 86 be 77 3f e8 08 87 3f 71 8b 81 bf 8c 29 87 bf
       0.9677509 1.0549593 -1.0120679 -1.0559554
0000d0 20 10 6c bf 7f 0e 5b bf e0 50 67 bf d2 b6 d5 bd
       -0.92212105 -0.85568994 -0.9035778 -0.10435261
0000e0 09 dd af bd 2b 0e ac 3d bd 54 ba bd 8f f0 71 3e
       -0.08587081 0.0840114 -0.09098194 0.23626922
0000f0 6c 5b 66 bf 46 0f 92 bf e0 d3 36 bf 7d 54 0f bf
       -0.8998325 -1.1410911 -0.71417046 -0.55988294
000100 53 c1 f0 be 8d 20 51 bf e1 72 e3 be ce 00 4b bf
       -0.47022495 -0.81690294 -0.44423583 -0.792981
000110 db a6 29 be 27 b5 1f bf f8 20 81 bf d8 a0 7c bf
       -0.16567557 -0.6238579 -1.0088186 -0.9868293
000120 18 a0 89 3d be 53 1e be e1 57 d5 be c9 8d 4a bf
       0.067199886 -0.15461633 -0.4166861 -0.79122597
000130 69 11 70 bf f6 64 0f bf b4 9c ec be 15 c5 47 bf
       -0.93776566 -0.5601343 -0.46213305 -0.780351
000140 19 7d 05 3e 96 24 a0 c1 8e d8 35 3e 27 6f 09 be
       0.13036002 -20.017864 0.1775839 -0.13421308
000150 2e e6 22 3e 18 4d 42 3e 26 2d 47 bd c1 e2 cc 3d
       0.15908119 0.18974721 -0.04862704 0.100041874
000160 91 51 47 be 0b 8c 74 3d 7f 77 90 be f9 a0 19 bd
       -0.19464709 0.059703868 -0.28216168 -0.03750703
000170 b0 52 c9 3d 5d 35 5e bd 8a bd 31 3d 30 2c e1 bd
       0.098302245 -0.05425011 0.04339365 -0.10994756
000180 e3 dc 82 bd 19 22 f1 bd 34 dd d4 3d 82 28 10 be
       -0.06389787 -0.11774082 0.10393754 -0.14077953
000190 db 64 50 bd 01 35 85 be b9 a7 1c 3e f3 b0 40 bc
       -0.050877433 -0.26017 0.15298356 -0.011760938
0001a0 ca bf f1 3d 02 54 38 3e 87 40 09 bd e6 aa 81 be
       0.11804159 0.18000796 -0.033508804 -0.25325698
0001b0 a3 bb 8f be eb 21 9d bc 1b 6a de 3d 47 eb 77 3e
       -0.28072843 -0.019181212 0.10860082 0.24210845
0001c0 4b 15 39 3e 06 47 66 be 3f c4 72 bd a1 d1 3d be
       0.18074529 -0.22488031 -0.059269186 -0.18536998
0001d0 e8 ab ac 3b 7b d2 e3 3d be 3c 78 bd 72 c4 26 3e
       0.0052695163 0.1112413 -0.060604803 0.16285875
0001e0 75 6b ac 3c 02 48 2f 3d 6c b7 6d 3e e4 c6 1d 3d
       0.021047333 0.04279328 0.23214501 0.038519755
0001f0 9f 40 04 3e d2 2b ed bc 71 b0 72 3e 68 df 2f be
       0.12915276 -0.02895156 0.2370012 -0.17175066
000200 af 2c 77 3d ec b9 7f be 31 91 77 bd 1a 5a 5a be
       0.060345348 -0.24973267 -0.0604412 -0.21323434
000210 98 f3 07 3e a8 3d 08 be e1 82 2a be 09 8a 33 3d
       0.13276517 -0.1330477 -0.16651489 0.043832812
000220 43 0e ef bc fd b8 b7 bd ad 35 2e be 02 de 6c 3e
       -0.029181605 -0.089708306 -0.17012663 0.23131564
000230 73 0a 81 bd b0 04 af ba 2e 1c 33 3d 25 cb f5 3d
       -0.06300821 -0.0013352837 0.043728046 0.12001637
000240 cf a7 92 be e9 b5 0e bd 02 2f 0f 3e 95 17 00 3e
       -0.28643653 -0.03484145 0.13982776 0.12508996
000250 0e 7b 70 3e 68 c9 0d bd 70 db 03 be dd 6c 57 3d
       0.23484442 -0.034615904 -0.12876678 0.052594054
000260 6e ce 3d ba 5b 49 46 3e 86 78 3c be 8a 56 8e be
       -0.0007240538 0.1936392 -0.18405351 -0.278004
000270 e9 8c 0a 3e 74 58 94 3c f9 26 29 3e 6c c5 ac bd
       0.13530315 0.018108584 0.16518773 -0.08436093
000280 89 a5 92 be a2 44 1b 3e 55 a6 63 bd d9 cd 44 3e
       -0.28641918 0.151629 -0.05557855 0.1921915
000290 92 dd 92 be 42 58 68 be 37 3c b8 bd bd cc ba be
       -0.2868467 -0.22689918 -0.0899586 -0.36484328
0002a0 fe 75 82 be 9c 6a bb be dc 5f a2 bd 51 55 ba bd
       -0.25480646 -0.36604774 -0.0792844 -0.09098304
0002b0 e0 98 fd be 31 18 ed be 27 9e 1d bd 4b fa 10 3d
       -0.49530697 -0.4630752 -0.038480904 0.035394948
0002c0 7e f7 8d 3d a4 ee ba 3b d2 df 94 3d ca 0b 57 be
       0.06931971 0.0057047177 0.07269253 -0.21000591
0002d0 2d 97 75 be 6f c7 0f bd 1e 8d 85 be e4 bd 22 be
       -0.2398345 -0.035102304 -0.26084226 -0.1589275
0002e0 de d6 49 3f 59 c3 83 be 6c 8b 41 3f 8c c1 1a 3f
       0.78843486 -0.25734976 0.75603366 0.6045158
0002f0 7e 2f 74 3e 8e 2b 59 3f 5d d7 04 be 98 66 25 3f
       0.23846242 0.84832084 -0.1297278 0.6460967
000300 e4 da ce be fa e6 d9 be e3 13 85 3e 72 4d 53 bd
       -0.40401375 -0.42559034 0.25991735 -0.05158753
000310 d4 e0 8a be f1 42 b2 3e 7c 30 c3 be 42 96 92 3d
       -0.27124655 0.34816697 -0.38122928 0.07157566
000320 94 73 2b 3e 2a 53 8a 3e a1 11 7c 3e 7c 4a 68 be
       0.16743308 0.27016574 0.246161 -0.22684664
000330 95 b1 56 3d 47 ff e9 3e 1b 80 eb 3d fb bb e8 3e
       0.05241545 0.45702574 0.114990436 0.45455918
000340 9d c9 66 3f f1 84 fd be a2 44 ad be b8 c7 1a bf
       0.9015139 -0.4951549 -0.33841425 -0.60460997
000350 4b 8b ba be 67 0a 8d be 07 9c af 3e 75 3c 11 3f
       -0.36434397 -0.27547 0.34298727 0.56732875
000360 0c 07 bd 3e 15 90 f0 3e b5 a1 a2 3e 74 d0 89 be
       0.3691944 0.46984926 0.31763998 -0.2691685
000370 2e 54 84 3d c7 b7 84 3e 24 de 39 3e cc 33 65 be
       0.064613685 0.2592146 0.18151146 -0.2238304
000380 ae 13 4a 3f 50 7a 58 3f f4 d5 86 3f 39 d9 48 3f
       0.7893628 0.84561634 1.0534043 0.78456455
000390 55 b5 0e 3f 98 b2 45 3f d5 c0 0b 3f d9 fd 94 3f
       0.5574544 0.7722564 0.54591113 1.1639968
0003a0 9b a3 3d 3f 02 2e c4 3e 1a e1 20 3f af 27 01 3f
       0.7407777 0.3831635 0.6284348 0.5045118
0003b0 34 c4 fe 3e 86 5d 9f 3e 5d 99 4b 3d 8f bc dd 3e
       0.49759066 0.3112604 0.049706805 0.4330792
0003c0 f3 dd 69 3f 19 fe 57 3f 75 d0 d8 3e 51 cf a0 3e
       0.9135429 0.843721 0.4234654 0.3140817
0003d0 66 86 4b bd af a8 9e 41 73 c4 b7 bc 33 e5 ea be
       -0.04968872 19.832365 -0.022432541 -0.4587799
0003e0 3c 38 1d be dc 4d 02 bf fc 7d 46 be 62 5d 2c 3c
       -0.15353483 -0.50900054 -0.19383997 0.010520311
0003f0 53 d9 91 be 87 04 bc be 75 b8 95 be dd 4a d8 bd
       -0.28486118 -0.36722204 -0.29242292 -0.10561154

net.0.bias f4 [64]
000000 db c9 5e 40 bb 75 c3 bc 16 d8 b4 3d ac 64 3d be
       3.4810703 -0.02385985 0.088302776 -0.18495435
000010 0e f5 b5 bc 78 e6 10 3f be d8 69 3f 4a 33 60 bd
       -0.022211578 0.5660167 0.9134635 -0.054736413
000020 07 b2 6a 40 00 00 00 00 78 9c ed 3f 34 75 15 c0
       3.667116 0.0 1.8563375 -2.3352785
000030 00 00 00 00 72 78 72 bc 80 45 b9 bb f1 9f 15 be
       0.0 -0.014799224 -0.005654037 -0.14611794
000040 98 23 59 bf 1f 6e ce be a3 29 ef 3e 83 ee 1d bb
       -0.84819937 -0.4031839 0.46711454 -0.0024098463
000050 8f 7c 92 bc b5 8a 2c 40 07 0f 3a c0 ad 61 12 3f
       -0.01788166 2.695966 -2.9071672 0.5718029
000060 4f c0 fd bf b5 86 89 bf 28 ca 48 be 0a e7 2b bc
       -1.9824313 -1.0744234 -0.19608366 -0.010492096
000070 36 a2 c1 be 46 b8 cc 3e e8 65 72 3f 00 00 00 00
       -0.3781907 0.3998434 0.94686747 0.0
000080 a1 07 32 bb cd b7 f6 be 3b f6 4a be e4 a4 15 3f
       -0.0027165192 -0.48187104 -0.19820492 0.5845473
000090 e7 f5 02 be 00 00 00 00 66 37 df bc 00 00 00 00
       -0.12789117 0.0 -0.027248096 0.0
0000a0 cc 24 0f bd d4 fe 43 be f1 04 b1 bc 00 bb 4b 40
       -0.0349472 -0.19140178 -0.021608802 3.1832886
0000b0 35 ca fc bd 00 07 17 40 b0 b2 98 3d e0 36 da 3f
       -0.123432554 2.3598022 0.07455957 1.7047997
0000c0 d8 a8 2f bc c7 7f d1 bf 40 11 8b 3e a4 64 03 c0
       -0.010721408 -1.636712 0.27161598 -2.0530176
0000d0 f2 8c ec bd dc e2 92 40 8f dc 3a 41 7a a2 50 bc
       -0.11550321 4.590193 11.678847 -0.01273405
0000e0 00 83 ec 3f 17 ad 41 3e c4 b0 05 bd a5 43 1d bf
       1.8477478 0.18913685 -0.03263928 -0.6143134
0000f0 00 00 00 00 82 c7 7a bc 7c 0d 11 be d9 92 00 40
       0.0 -0.015306355 -0.141653 2.0089629

net.2.weight f4 [32, 64]
000000 ce bf 5d be f5 79 32 3e 84 e6 04 bf f5 a2 36 3e
       -0.21655199 0.17429335 -0.5191424 0.178356
000010 a1 f1 c8 3d 9d e3 7f bf 77 fd 47 be 6b 3e 08 3d
       0.09811712 -0.99956685 -0.19530283 0.03326265
000020 6e dc 95 3e e7 61 d5 bd 02 3c d3 bf 8b e7 57 c0
       0.29269737 -0.10419064 -1.6502688 -3.3735073
000030 d2 54 38 be 66 63 c9 be 24 55 c2 be 57 92 d6 be
       -0.18001106 -0.39333647 -0.37955582 -0.41908523
000040 03 77 54 bf b0 bf 48 be ed 06 c8 be c6 c4 b8 bd
       -0.829941 -0.19604373 -0.39067784 -0.090219066
000050 37 19 75 3d 63 53 83 3c 89 21 30 bf 29 9c 07 be
       0.0598385 0.016030973 -0.6880117 -0.13243164
000060 5d dd 8b be 7c 8c f8 be 0d 29 6a be 5a 13 95 3e
       -0.27317324 -0.4854468 -0.22867222 0.29116327
000070 5f 20 b8 bd e8 91 49 bd 75 43 c8 be 71 e9 e8 bd
       -0.08990549 -0.049211413 -0.39113966 -0.113726504
000080 1e e2 b8 bc 76 c6 7f bf 88 fe 23 be 73 9f a5 3e
       -0.022568759 -0.999122 -0.16015065 0.32348213
000090 6f 39 89 be 51 49 d2 3d ba d8 33 bd 81 46 9a bd
       -0.2680163 0.1026789 -0.04390786 -0.07532979
0000a0 a9 50 77 bd c4 85 e3 be 8a 83 44 3d 0c 7a bc be
       -0.060379658 -0.44437993 0.047977008 -0.36811864
0000b0 5e 9e 09 bf a6 65 51 3d 03 1b 7a be 9a 63 d7 3d
       -0.53757274 0.05112233 -0.24424367 0.10517044
0000c0 05 f1 83 3e be 37 07 c0 9e d4 01 bf 7b 70 9f be
       0.2576982 -2.1127772 -0.50715053 -0.31140503
0000d0 d3 10 a0 be c7 3c 6b 3f 4f c3 99 3f 03 19 74 3e
       -0.31262836 0.91889614 1.2012728 0.23837666
0000e0 1f 35 17 3f 05 2f 8d bd 27 d9 fa bd 88 fd 8e 3d
       0.5906543 -0.06893734 -0.1224845 0.06981951
0000f0 cb 9f 87 be 07 9b 28 3d f9 1c 0c 3d 88 cb 14 c0
       -0.264891 0.04116347 0.034207318 -2.3249226
000100 df d2 d8 3e 6d b4 ce 3d a2 52 66 3e cc 38 0b bd
       0.42348382 0.10093007 0.2249246 -0.033989713
000110 41 28 b3 bd 9f f5 7c 3f b5 d7 67 be 56 7a 8f 3e
       -0.08747912 0.9881229 -0.2264088 0.28023022
000120 2e 71 18 3f 9b 67 dd 3d a6 a7 a6 3f 02 ee 24 3e
       0.595477 0.10810777 1.3019912 0.16106418
000130 9e 3e 82 3e b5 37 38 3c c2 f3 b1 3e 60 c7 7c bf
       0.25438398 0.01124375 0.34756285 -0.9874172
000140 94 1a 58 3f 33 c4 d0 3e ce e6 35 be 9f c0 9d be
       0.84415555 0.40774688 -0.17763826 -0.3081102
000150 51 61 0e 3e 05 18 1a be 16 61 ad 3e 0c 97 dc be
       0.13904311 -0.15048225 0.33863133 -0.4308399
000160 fe 37 be bc 02 d5 2c 3e e4 54 83 bc 34 9e cf bd
       -0.023220059 0.16878131 -0.01603169 -0.10137597
000170 d7 d3 60 3f ae 32 c6 3d bf f2 ee bd 90 04 8b 3c
       0.8782324 0.09677635 -0.11667394 0.016969949
000180 cc 25 99 be b5 e1 35 3f 38 f0 b3 3f 02 3c 71 be
       -0.2991165 0.71047527 1.4057684 -0.23558047
000190 8d 40 13 3e 8e 74 46 3e 1d bc fe bd 62 19 22 3d
       0.14380093 0.193804 -0.124382235 0.03957499
0001a0 70 9d 37 bc cb cd 42 3d fd b8 7e be 40 e4 0c be
       -0.01120697 0.04755954 -0.24875255 -0.13758945
0001b0 c5 8a 7a 3f aa 98 92 3e 91 04 06 bf 1c 1f c0 bd
       0.97867996 0.28632098 -0.5235072 -0.09380934
0001c0 ce 36 96 be ab ad 44 3e da c7 6b bc 54 9d a5 be
       -0.29338688 0.19206874 -0.01439091 -0.32346594
0001d0 e8 b5 0f be e6 af 12 bf 45 02 9b bf b5 2e 98 be
       -0.14034235 -0.5729965 -1.2110068 -0.29723135
0001e0 27 62 b9 be a7 bb 43 3e 78 b5 57 3e 4e fb 2c bd
       -0.36207697 0.19114552 0.21065319 -0.04223185
0001f0 73 e4 06 3e 02 3c 88 bd e1 43 d6 be b5 ce c5 3f
       0.13173084 -0.066520706 -0.41848662 1.5453707
000200 df 44 bf bc 71 94 27 be 2f 0a 72 be f8 c1 99 be
       -0.02334827 -0.1636522 -0.23636697 -0.300308
000210 a1 73 0b be 41 52 cd 3d c8 05 86 3c 19 91 8e 3e
       -0.13618328 0.10025454 0.016360179 0.27845076
000220 11 b2 f6 3e c2 f6 12 3e 59 4b 4b 3f e7 14 b6 3e
       0.4818273 0.14351943 0.79411846 0.35562822
000230 d5 9b fc bc fe ef 9a bd 05 9a f0 3e 34 f1 8d 3e
       -0.030836025 -0.07565306 0.46992508 0.27723086
000240 cd d2 10 3e bc d8 d2 bf 1c 11 a0 be 52 27 91 be
       0.14142914 -1.6472392 -0.31263053 -0.28350312
000250 16 17 bf bd a3 79 15 be 1c 00 9a bf 8c 28 c9 3e
       -0.09330575 -0.14597182 -1.2031283 0.39288747
000260 f6 64 84 c0 78 20 8a be 83 42 aa 3e 06 4d a7 3b
       -4.1373243 -0.26977897 0.3325387 0.0051056175
000270 e8 d3 56 be 54 2b 32 be 47 1c 04 bd 97 12 3d 3e
       -0.20979273 -0.17399341 -0.03225353 0.18464123
000280 5a 0c 0c 3e 07 7c a8 3d 82 46 89 3f 69 d5 86 3e
       0.13676587 0.08226781 1.0724642 0.26334694
000290 f1 63 4c 3e 0a 38 d2 3d eb b7 4c be 91 8d c9 3d
       0.1996 0.10264595 -0.19992034 0.09841455
0002a0 f8 3f a4 3d 1c 98 a7 3e 9f 3f 2a be 42 b2 5c be
       0.080200136 0.32733238 -0.16625832 -0.21552375
0002b0 3a 0d 0b bf 2c d8 5e 3e dc f0 48 be 6c 3e 2a 3e
       -0.5431706 0.2176215 -0.1962313 0.16625375
0002c0 fa 55 35 be 0d 28 96 bf e4 2a ac 3d 4d a6 0e c0
       -0.17708579 -1.1730973 0.08406618 -2.2289002
0002d0 c9 22 86 3e ab 43 13 3f 47 6e 9e 3e e8 80 00 3e
       0.26198414 0.5752513 0.3094351 0.12549174
0002e0 01 2e cf 3e 5e 3e 5c be 68 f8 e0 bc 57 84 28 bf
       0.40464786 -0.21508166 -0.0274622 -0.65826935
0002f0 03 e2 58 bd ab e1 9b 3e 41 d4 88 be 02 94 b8 3e
       -0.052949917 0.30445608 -0.26724437 0.3605042
000300 bb a8 64 bd 55 e2 8e be a5 47 a7 bf 96 04 01 bf
       -0.055824976 -0.27907053 -1.3068739 -0.5039762
000310 21 a5 59 3d 1b 1e 1f bf 80 0a 98 be bd b6 b1 bd
       0.053135995 -0.6215531 -0.2969551 -0.08677433
000320 8e e1 05 bf 49 4b 4c bd 23 a8 c7 bf c1 1f 1a c0
       -0.52297294 -0.049876485 -1.5598186 -2.408188
000330 55 66 44 be a5 77 53 3c 47 36 7e bf ea e1 1c bf
       -0.19179662 0.012906943 -0.9930157 -0.6128222
000340 40 40 24 3f 97 9e 59 3f 9a d0 fd 3e 26 53 27 3e
       0.6416054 0.85007614 0.49573213 0.16340312
000350 41 7f a2 be aa 7b db bd 72 8c c5 3e d4 db 3b 3e
       -0.31737712 -0.107169464 0.38583714 0.18345577
000360 37 73 b6 3f fb 5f be bf 29 2b bb be d2 06 8f 3e
       1.4253911 -1.4873041 -0.36556366 0.2793489
000370 7e 9f 11 3e 09 d7 99 be 87 c3 25 be 58 82 1e be
       0.14220998 -0.3004687 -0.16187869 -0.1547941
000380 b9 10 96 3e da 76 5c bd d7 d1 0d bf b5 64 af 3e
       0.29309633 -0.053824283 -0.55398315 0.3425652
000390 3a 86 06 be 5a a0 86 3e ca 4f 81 3e 5c ef be bd
       -0.13137141 0.26294214 0.25256187 -0.09322998
0003a0 25 b1 37 be aa 9c 87 bf e1 8f 5d 3e bf 3e 4d 3d
       -0.17938669 -1.0594685 0.21636917 0.050108667
0003b0 70 cf 0d bf a3 04 f3 bd d6 6b c4 be c9 83 3c bf
       -0.5539465 -0.11866119 -0.38363522 -0.7363859
0003c0 0e d0 00 be a5 44 1c c0 c1 08 8e bf fa d6 4e 3f
       -0.12579367 -2.4416897 -1.1096421 0.8079678
0003d0 8f 7d 4c 3e a7 df 03 3f a7 b6 02 3f 4b 2c 47 3e
       0.19969772 0.5151314 0.51059955 0.1945049
0003e0 6c 8b cd 3e cf 08 9f bf ad 6e 6d be 42 56 86 3e
       0.40145433 -1.2424563 -0.2318675 0.26237684
0003f0 86 12 45 3e 7e b0 99 bd 1c 13 68 3e 32 0a 27 c0
       0.19245347 -0.07504366 0.2266354 -2.6099973

net.2.bias f4 [32]
000000 5a df 8a 3f 2b ac 75 40 11 5c 4a 40 4b 69 13 3f
       1.0849411 3.8386333 3.1618693 0.5758254
000010 d4 d8 93 40 f1 75 80 bc a0 05 ec 3f 8e 6e 90 bd
       4.6202183 -0.015681239 1.8439217 -0.07052337
000020 74 56 7c bd ff 81 98 3f 2c 63 64 bc 6f 38 7a c0
       -0.061605886 1.1914672 -0.01393966 -3.9096944
000030 c1 ea 43 3c 22 5a 29 bd 82 cf f6 bc 5c ab 7a 3f
       0.011957825 -0.041345723 -0.030128244 0.97917724
000040 31 6d 8d 40 67 6a 18 bd 46 1f 81 bd c1 a3 c2 40
       4.419579 -0.03721085 -0.06304793 6.0824895
000050 c7 4c 8c bd 72 cc 87 bf 9d cb 78 bd 55 cd 8c 40
       -0.068505816 -1.0609267 -0.060741056 4.400065
000060 09 00 c5 3f b2 7d 99 bd 21 91 97 bf ac 76 58 c0
       1.5390636 -0.074946776 -1.1841165 -3.3822432
000070 e0 96 e8 bd 85 f7 2e be 16 84 02 40 26 49 31 3e
       -0.11356902 -0.17086609 2.039312 0.1731306

net.4.weight f4 [3, 32]
000000 a3 43 2f bf f3 ae a1 3e d0 f2 9f 3f cf 63 a2 bf
       -0.6846258 0.31578788 1.2495975 -1.2686709
000010 68 21 6e 3f db 28 37 be 4e 8c 33 bf 74 90 b1 3e
       0.93019724 -0.17886679 -0.7013596 0.3468052
000020 1a ea c5 be 8f bf a2 3f ba b0 8c bc 60 62 14 c0
       -0.38655168 1.2714709 -0.017174114 -2.3185043
000030 85 8d 68 3f e7 7e c2 3e 5f e4 0f 40 28 11 fc bf
       0.9084094 0.37987444 2.2483137 -1.9692736
000040 0a 38 23 3f 54 1c 48 be 0e c9 cc 3c f8 d3 ce bd
       0.63757384 -0.19542056 0.024998214 -0.100990236
000050 9e b6 80 bb 0b c2 dc 3f 38 0d 93 3d 35 a2 11 3f
       -0.0039280197 1.7246717 0.07180256 0.56888133
000060 8f f3 de 3f c0 de 49 be 83 2a 42 bf 31 a1 0f c0
       1.7418078 -0.19713879 -0.7584612 -2.2442133
000070 e5 41 93 3e 96 87 aa be c0 29 4c 3f ab c9 c2 3f
       0.2876121 -0.3330657 0.79751205 1.5217794
000080 15 19 68 be a4 f0 a1 3e 62 38 ad bd fd 35 95 bd
       -0.22665818 0.31628907 -0.0845802 -0.07285688
000090 57 aa cd bc 68 98 b5 3e 5b 0d 1c 3f bb 71 b6 be
       -0.025105638 0.3546784 0.6095788 -0.35633644
0000a0 ac 41 3c be 1f 73 ac bd 58 77 d1 bd 77 2b 33 be
       -0.18384427 -0.08420395 -0.10227841 -0.1749705
0000b0 fc 24 1e 3e 7c 9a 37 be 12 8f 08 3f 2c ac 19 3d
       0.15443796 -0.17930025 0.5334331 0.03751771
0000c0 33 8d f7 3e 59 19 fc 3c 43 65 aa 3e c3 6d 5e 3e
       0.48349914 0.030773805 0.33280382 0.21721558
0000d0 02 1f 07 3e 60 13 8b 3e 09 85 12 be 84 f6 af 3e
       0.13195422 0.2716322 -0.14308561 0.34367764
0000e0 81 0a c9 bd 25 c4 0e 3e 1b 5a 9c bd e2 a8 a8 3d
       -0.098164566 0.1394201 -0.07634374 0.08235337
0000f0 c2 38 05 3e 2b 4f 5c 3d 4d 85 6f be f3 02 12 bd
       0.13009933 0.053786438 -0.23390694 -0.035647344
000100 e5 49 ff 3f 0d 0b af 3e 58 53 8b 3e 56 85 9e 3d
       1.9944426 0.3418812 0.27212024 0.077402756
000110 44 00 64 40 b2 6b 93 be 95 b0 8b 3f 96 ad 0b bd
       3.5625162 -0.28793103 1.0913264 -0.03410109
000120 5d 42 c7 be de e7 07 c0 54 0f 91 3c 32 64 48 40
       -0.3891782 -2.123527 0.017707504 3.1311154
000130 89 49 18 bf 54 e5 ae 3e 17 85 aa bf e6 34 a7 bf
       -0.59487206 0.34159338 -1.3321866 -1.3063018
000140 db 97 a5 3e 80 5b c2 be d7 53 94 3e 35 51 b6 bc
       0.3234242 -0.37960434 0.28970215 -0.02225552
000150 e8 64 79 be 79 bc 46 be 42 50 3c bb c1 e8 af 3e
       -0.24354899 -0.19407834 -0.002873436 0.34357265
000160 0d 3b 30 bf 6f cb 8d be 92 6a 84 bf 18 7d 7e be
       -0.68840104 -0.2769427 -1.0345023 -0.24852407
000170 7f 55 cd be b2 e4 17 bf da d4 1e bf 47 78 ae bf
       -0.4010429 -0.59333336 -0.62043536 -1.3630456

net.4.bias f4 [3]
000000 0d ec 40 40 aa f3 4c 40 23 ba 94 40
       3.0144074 3.202372 4.647722

net.0.weight f4 [64, 82]
000000 b3 37 3a 3e e7 18 81 3e 28 7e 16 3e bf 26 56 be
       0.1818531 0.2521431 0.14696562 -0.20913218
000010 e4 f4 2f bc 89 3f 7b be a0 85 1b 3e 66 34 da 3c
       -0.010739539 -0.24535955 0.15187693 0.026636314
000020 b8 d2 ed 3c 84 e7 c9 bd 8e cd 59 be c9 f8 40 be
       0.029031143 -0.09858611 -0.21269819 -0.18844904
000030 fc 3e 1c be 7a 1b 81 3e 41 45 68 3e 39 f8 16 bc
       -0.15258402 0.25216275 0.22682668 -0.009214454
000040 7f 58 b9 3c f5 b2 58 3e 66 bf e5 bd b5 b5 09 3d
       0.022625206 0.21162017 -0.11218147 0.033620555
000050 57 4c 6f bb d2 0a 80 be 94 6f 80 3e 65 1e 3b bd
       -0.0036514008 -0.25008255 0.25085127 -0.045683283
000060 a6 b8 3b 3b a2 ad b2 bc 35 99 9a 3d f1 f5 68 be
       0.0028643995 -0.02181131 0.07548753 -0.22750069
000070 18 cb f1 bd b4 dc 6b be ce a5 07 3e c9 9f 3d be
       -0.11806315 -0.2303341 0.13246843 -0.18517984
000080 1a e5 99 3d 48 3f 3e be 0b 3a 1d be 6c 60 b6 bd
       0.07514401 -0.18578827 -0.15354173 -0.0890511
000090 bc 2b ff 3c 6c c9 08 3c 1c c4 f5 bd ef 44 34 3e
       0.031148784 0.008348804 -0.120002955 0.17604421
0000a0 c0 d1 e0 3d a7 26 6e be 34 92 df 3c 5f 67 a4 bd
       0.10977507 -0.23256932 0.027291395 -0.08027529
0000b0 c9 11 42 3d 15 b4 df bd e6 35 cc bd fb 08 6c be
       0.047380242 -0.1092302 -0.09971218 -0.23050301
0000c0 be 92 28 3e 03 ec 7f 3e 7d a2 1a be b9 db 5d be
       0.16462228 0.24992375 -0.15101047 -0.21665849
0000d0 82 75 ce bd 3d 49 57 bd 76 c7 c9 bd d2 b6 d5 bd
       -0.100810066 -0.05256008 -0.09852497 -0.10435261
0000e0 09 dd af bd 2b 0e ac 3d bd 54 ba bd 8f f0 71 3e
       -0.08587081 0.0840114 -0.09098194 0.23626922
0000f0 2b 8b d5 3d b9 23 42 be b2 55 5d 3e 84 e6 d4 bd
       0.10426935 -0.1895894 0.21614721 -0.1039553
000100 7c 9f f6 bd 82 62 31 be 7e 20 3b 3e d7 f3 e9 bd
       -0.12042138 -0.17322734 0.18274114 -0.11423462
000110 a0 35 90 bd 4a ed 11 bd ad 83 35 be b3 a2 01 be
       -0.07041478 -0.035626687 -0.17726012 -0.12659721
000120 d7 d1 7d 3e 9a 54 87 be da f2 9c 3c 4b eb 8e 3d
       0.24787079 -0.26431733 0.01915877 0.06978472
000130 02 3b ec bd d2 a3 c2 bc 46 f4 f9 bd 4c 01 61 3e
       -0.11534692 -0.023759756 -0.122047946 0.21973151
000140 89 53 84 3e 15 bb 04 3e 8c 25 54 3e 9c 45 d6 bd
       0.25844982 0.12961991 0.20717448 -0.10462496
000150 d7 32 41 3e 1a 9a 60 3e 2d 07 9c bc 7f b0 04 3e
       0.1886705 0.21933785 -0.01904639 0.12957953
000160 84 13 29 be 31 c2 b6 3d 66 58 81 be 22 a0 02 bc
       -0.16511351 0.08923758 -0.25262755 -0.007972749
000170 02 f9 02 3e 8a f2 c9 bc fb 7c 95 3d aa 8d a4 bd
       0.12790301 -0.024651784 0.07299229 -0.08034833
000180 74 81 0c bd ad e9 b4 bd 71 90 08 3e 22 04 e4 bd
       -0.034303144 -0.088336326 0.1333635 -0.11133601
000190 b7 72 af bc ab 3e 6c be 6d 16 35 3e f3 b0 40 bc
       -0.021417005 -0.23070781 0.17684336 -0.011760938
0001a0 9b 4e 11 3e b6 c2 50 3e 96 16 1e bc e6 aa 81 be
       0.14190142 0.20386776 -0.00964894 -0.25325698
0001b0 48 84 83 be eb 21 9d bc 1b 6a de 3d 47 eb 77 3e
       -0.2568686 -0.019181212 0.10860082 0.24210845
0001c0 4b 15 39 3e 06 47 66 be 5c 09 11 bd ed 62 25 be
       0.18074529 -0.22488031 -0.035409316 -0.16151018
0001d0 e8 ab ac 3b 7b d2 e3 3d be 3c 78 bd 72 c4 26 3e
       0.0052695163 0.1112413 -0.060604803 0.16285875
0001e0 75 6b ac 3c 02 48 2f 3d 10 13 83 3e e4 c6 1d 3d
       0.021047333 0.04279328 0.2560048 0.038519755
0001f0 9f 40 04 3e d2 2b ed bc 93 8f 85 3e 35 55 19 be
       0.12915276 -0.02895156 0.260861 -0.1497391
000200 e9 72 a9 3d b1 6b 68 be 2e e3 18 bd 1a 74 42 be
       0.082738705 -0.22697331 -0.03732603 -0.18989602
000210 ca d2 e2 3d e9 2b 1f be 1c d1 41 be 0f b8 a9 3c
       0.11075361 -0.15544094 -0.18927425 0.020717649
000220 25 1f 57 bd fd b8 b7 bd ad 35 2e be 02 de 6c 3e
       -0.052519936 -0.089708306 -0.17012663 0.23131564
000230 73 0a 81 bd b0 04 af ba 11 4c 92 3d ea a1 16 3e
       -0.06300821 -0.0013352837 0.07143415 0.14710203
000240 89 c4 84 be fa 2a 01 bc da ec 2a 3e c3 2e 1c 3e
       -0.25931194 -0.007883782 0.16691914 0.15252213
000250 01 12 86 3e 3c 11 fd bb d6 33 d0 bd a4 78 a2 3d
       0.2618561 -0.0077230018 -0.10166137 0.079331666
000260 00 61 d9 3c 07 38 62 3e b9 c0 20 be c7 73 80 be
       0.026535511 0.22091685 -0.15698518 -0.2508833
000270 e2 5d 25 3e a1 1d 39 3d 82 ed 44 3e b1 1f 6b bd
       0.16149095 0.045194272 0.19231227 -0.05740327
000280 9b c6 84 be 6f ea 35 3e f0 40 d4 bc 60 4b 62 3e
       -0.25932774 0.1776521 -0.02590987 0.22099066
000290 ef 9a 75 be ff 7f 3b be 97 bd 6c bc 61 93 83 be
       -0.23984884 -0.18310545 -0.014449499 -0.2569838
0002a0 77 0d 05 be fa 95 cc bd c3 e9 39 3e 1f af 42 3e
       -0.12993418 -0.09989543 0.1815558 0.19012116
0002b0 b0 3f 4e be 82 93 21 be 3f 04 8b 3c 1d 13 c3 3d
       -0.20141482 -0.15778926 0.016969798 0.0952513
0002c0 bc 0d bd 3d 5e 48 ef 3d 53 fe 0b 3e 10 83 96 3d
       0.09231135 0.11683725 0.13671236 0.07349217
0002d0 ce e7 be 3d 46 dc 88 3e 61 29 b5 3c 71 5f bd 3d
       0.09321557 0.26730555 0.022114458 0.0924672
0002e0 a5 20 1b 3d 25 8d 9f bd 48 47 5f 3e 81 15 df 3d
       0.03787293 -0.07790593 0.21804535 0.108927734
0002f0 67 7e 3e be a7 7e 46 3e 4d ac 59 3d df 3c 32 be
       -0.18602906 0.19384252 0.053142834 -0.17406033
000300 59 94 d5 bb b9 b4 70 be 8a e6 84 3d 0e a4 51 3d
       -0.0065179286 -0.2350644 0.06489284 0.051181845
000310 cc 12 00 3e 71 95 0e 3e 60 d0 5c be e3 73 35 3e
       0.1250717 0.13924195 -0.21563864 0.17719989
000320 23 c5 05 be 3e f8 84 3e 4e b6 75 be a3 fd 13 3e
       -0.13063483 0.25970644 -0.23995325 0.14452223
000330 98 63 84 3e 59 ec b0 bd 23 26 04 be e5 af 5e 3e
       0.25857234 -0.0863883 -0.12905173 0.21746786
000340 7b 66 61 3e 0a 25 10 be e9 ce 8a 3d 49 1b 32 be
       0.2201175 -0.1407663 0.06777746 -0.17393221
000350 91 f5 cc 3d c5 9f 56 3e d7 be 3a bc bc 01 25 3e
       0.100077756 0.20959385 -0.011398039 0.16113943
000360 79 d6 7b bd 25 dd b1 3b ab 70 2b be 74 d0 89 be
       -0.061483834 0.005427974 -0.16742198 -0.2691685
000370 2e 54 84 3d c7 b7 84 3e 24 de 39 3e cc 33 65 be
       0.064613685 0.2592146 0.18151146 -0.2238304
000380 d4 53 56 3d 13 38 71 3d c9 8a 1a 3e 58 5f 27 3a
       0.05232604 0.058891367 0.15092005 0.0006384752
000390 7f be 41 3e b2 f7 21 3e 1b 85 31 be ae 71 85 3e
       0.18920325 0.15817145 -0.17335932 0.26063293
0003a0 dd 7c 16 3e 8c 6d ca bd 94 c8 8f 3d 4c 18 77 bd
       0.14696069 -0.09884176 0.07020679 -0.060325906
0003b0 49 2b 1d bd f5 c6 48 3e eb f6 d0 3d 8f da 83 be
       -0.038371358 0.19607146 0.10203346 -0.25752684
0003c0 a9 1f bf 3c 64 8e b2 3d b7 e0 89 bc 40 91 a0 3d
       0.023330526 0.08718565 -0.016830785 0.07840204
0003d0 a1 30 58 3e 79 52 f0 3d 0c c0 64 3e 29 c2 6b be
       0.211123 0.117344804 0.22338885 -0.23023285
0003e0 76 62 8c 3d ee 7b 81 be 3b 82 3e 3b 06 a8 eb 3d
       0.068547174 -0.25289863 0.0029069323 0.11506657
0003f0 7c 94 3d be 72 27 79 be 0e 64 16 be 4f e5 59 3d
       -0.18513674 -0.24331453 -0.14686605 0.0531972

net.0.bias f4 [64]
000000 00 00 00 00 00 00 00 00 00 00 00 00 00 00 00 00
       0.0 0.0 0.0 0.0
000010 00 00 00 00 00 00 00 00 00 00 00 00 00 00 00 00
       0.0 0.0 0.0 0.0
000020 00 00 00 00 00 00 00 00 00 00 00 00 00 00 00 00
       0.0 0.0 0.0 0.0
000030 00 00 00 00 00 00 00 00 00 00 00 00 00 00 00 00
       0.0 0.0 0.0 0.0
000040 00 00 00 00 00 00 00 00 00 00 00 00 00 00 00 00
       0.0 0.0 0.0 0.0
000050 00 00 00 00 00 00 00 00 00 00 00 00 00 00 00 00
       0.0 0.0 0.0 0.0
000060 00 00 00 00 00 00 00 00 00 00 00 00 00 00 00 00
       0.0 0.0 0.0 0.0
000070 00 00 00 00 00 00 00 00 00 00 00 00 00 00 00 00
       0.0 0.0 0.0 0.0
000080 00 00 00 00 00 00 00 00 00 00 00 00 00 00 00 00
       0.0 0.0 0.0 0.0
000090 00 00 00 00 00 00 00 00 00 00 00 00 00 00 00 00
       0.0 0.0 0.0 0.0
0000a0 00 00 00 00 00 00 00 00 00 00 00 00 00 00 00 00
       0.0 0.0 0.0 0.0
0000b0 00 00 00 00 00 00 00 00 00 00 00 00 00 00 00 00
       0.0 0.0 0.0 0.0
0000c0 00 00 00 00 00 00 00 00 00 00 00 00 00 00 00 00
       0.0 0.0 0.0 0.0
0000d0 00 00 00 00 00 00 00 00 00 00 00 00 00 00 00 00
       0.0 0.0 0.0 0.0
0000e0 00 00 00 00 00 00 00 00 00 00 00 00 00 00 00 00
       0.0 0.0 0.0 0.0
0000f0 00 00 00 00 00 00 00 00 00 00 00 00 00 00 00 00
       0.0 0.0 0.0 0.0
